KGCN/kgcn_agg_weights_0_64_news_2.npy (npy, 16512 bytes, 1 tensors)

array f4 [64, 64]
000000 04 3e 90 3d ad 51 dc 3d 2b 5c 2f be 0c ab a6 37
       0.070430785 0.10757766 -0.17125003 1.9868392e-05
000010 4f 59 90 3d 9f 48 df bd ca df fb 3d 7e c8 c0 bc
       0.07048284 -0.10902523 0.12298544 -0.023533102
000020 1d 92 8e 38 9a 4d a1 3d ba 5a 31 be f3 93 0d be
       6.7983034e-05 0.078761294 -0.17319766 -0.1382597
000030 7c 63 5a b9 14 68 88 3c 8a 6f 55 bd 7b fe c9 3d
       -0.00020827161 0.01665119 -0.052108325 0.098629914
000040 bf 9b db bc 23 0b c3 3d a4 1d 31 be 4f 3f 92 bd
       -0.026807664 0.095236085 -0.17296463 -0.071409814
000050 d8 de 00 3e 27 2d 43 bd 7d a4 51 3d 61 25 5d bd
       0.12585008 -0.047650483 0.05118226 -0.053990725
000060 3a bb e8 bd 68 f0 44 bc 8b e7 19 be b9 99 1a be
       -0.11363836 -0.012020208 -0.15029733 -0.15097703
000070 f9 84 be 3c f9 84 56 b8 ce 87 d2 bd 61 b0 0e 3e
       0.023256766 -5.1145416e-05 -0.10279809 0.1393447
000080 36 5e 70 bd 11 70 f5 3c 66 22 fa 3d ce 8e 12 bd
       -0.058683597 0.029960664 0.12213592 -0.03578072
000090 db 70 24 be ff 8e 14 be b6 81 2d b7 98 20 25 39
       -0.16058676 -0.14507674 -1.0341804e-05 0.00015747768
0000a0 1b f2 fa bd 05 00 ce bc 8b 91 43 bc f3 d6 3e 3d
       -0.12253209 -0.025146494 -0.011936556 0.04659171
0000b0 0b c6 08 3e f9 a1 20 3e 60 b1 25 be ec 81 39 be
       0.13356797 0.15686788 -0.16180944 -0.18115968
0000c0 93 46 2c 3c 41 91 c3 3d 99 e3 ca 38 9f 32 09 3d
       0.010514873 0.09549189 9.674504e-05 0.03349554
0000d0 d0 e8 1e 3d 68 b0 09 bc 78 ee f4 3d d1 14 07 3e
       0.038796246 -0.008403875 0.11959547 0.13191535
0000e0 ee bb 62 3c f4 bc f4 3d 69 26 cc 3a c7 ae 07 3b
       0.013838751 0.119501024 0.0015575412 0.002070354
0000f0 d9 9a 12 be 88 68 05 be 49 20 11 3e 58 2d ba bc
       -0.14316882 -0.13028157 0.14172472 -0.0227267
000100 96 23 92 bd a8 10 60 bd 41 79 28 3e 2d 71 cd 3b
       -0.07135694 -0.054703385 0.16452505 0.006269595
000110 db 25 34 3d 81 0f 34 be 5c 50 05 3e 8c 8a 64 bb
       0.043981414 -0.1758404 0.13018936 -0.003487262
000120 67 29 f7 3d ff a3 65 bc c2 9c 5a 3c 65 b2 07 be
       0.12068444 -0.0140161505 0.013343038 -0.13251646
000130 d9 59 26 3e 21 c1 24 3d 02 48 db bd 55 fc 23 bd
       0.16245212 0.040223245 -0.10707094 -0.040035564
000140 9a d4 8d 3d 7f 8e a4 3d a8 da a8 3d 2d 4a 9c b7
       0.06925316 0.080349915 0.0824483 -1.863119e-05
000150 83 fa 1a 3e 1a eb 8b bd 86 16 1e be a1 17 81 3d
       0.15134625 -0.068319514 -0.1543828 0.06303335
000160 1d 40 3b b8 bd a5 04 3e 17 a2 39 3e 70 8f c1 3d
       -4.4643984e-05 0.12953849 0.18128239 0.09451187
000170 71 7a b7 bd 92 c4 24 b8 e9 e3 6e bd 3a d9 29 3e
       -0.08958901 -3.9283717e-05 -0.05832282 0.16586772
000180 ab 1d b1 3c 5e 6e e8 3d da a2 0f 3d 8f e7 2b 3e
       0.021620592 0.11349176 0.035067417 0.16787551
000190 9e cc 3c b8 92 0c 27 be 16 4b a8 bd 61 35 9f bc
       -4.5013257e-05 -0.16313389 -0.082174465 -0.019434633
0001a0 cd a1 12 3b 40 17 31 3e aa af 00 bd 32 37 aa 3c
       0.0022374273 0.17294025 -0.031417526 0.020778272
0001b0 2b 8a 5c bd 48 dc ac 3c f0 2a 36 3e 0c 6d b1 bd
       -0.053842705 0.021101132 0.17789817 -0.08663377
0001c0 fc b3 00 be 1d 64 1b be 36 c6 eb bd a6 86 e3 3d
       -0.12568659 -0.15174909 -0.11512415 0.111096665
0001d0 9b 6f af bd 4d 72 89 bd b5 c1 4f bd 15 b6 2c bd
       -0.08566209 -0.06711254 -0.050721843 -0.042165834
0001e0 2e 89 27 3e 92 4c a8 3d 84 e2 b1 3d e2 6c aa 3d
       0.16360924 0.0821773 0.086857826 0.08321549
0001f0 6d 96 b1 bd 3c ad aa 3c d7 8d 19 be be 00 da bc
       -0.086712696 0.020834558 -0.14995514 -0.026611682
000200 98 76 be 37 19 7a e8 bb 47 15 4f 3b 3c 41 36 bd
       2.270499e-05 -0.0070946333 0.0031598376 -0.044495806
000210 3e a6 8f b8 e8 40 2e be 9e 20 9a 3c 06 16 1f 3e
       -6.8497364e-05 -0.17016947 0.018814381 0.15535745
000220 3b 72 ea 3d b9 05 a7 b7 70 e0 2d 3e 3b d2 1e 38
       0.11447569 -1.9910616e-05 0.16980147 3.7865928e-05
000230 cc 69 26 be c1 cd 28 bd d6 e6 c6 3d bd f2 72 b8
       -0.16251296 -0.041211847 0.09711997 -5.7923364e-05
000240 ee 39 3f 3e bd e7 27 3e 69 29 09 be 39 a2 aa bd
       0.18674442 0.16396995 -0.13394703 -0.08331723
000250 26 e3 3d 3e 2e 81 15 be 9a 47 fb 3d 8a 8a 23 bc
       0.18543682 -0.1460006 0.12269516 -0.009981761
000260 d2 00 04 be 52 d6 3b 3c 8d 29 20 bd ca 50 8c 3d
       -0.12890938 0.011464672 -0.039102126 0.06851347
000270 ea 71 d0 bd 3a 3a 17 bd bf 96 c0 bd 10 ce 25 3e
       -0.101779774 -0.036920764 -0.094037525 0.16191888
000280 f2 da 29 be d4 04 38 be 26 68 d1 bd e5 09 0a 3e
       -0.16587427 -0.17970592 -0.10224943 0.13480337
000290 b4 d8 d6 bc dc b7 09 3e 7e 50 31 3e c8 5e 7f bd
       -0.026226379 0.13449043 0.17315862 -0.06234625
0002a0 35 6e 6b 3a 34 80 45 bd 6d cd 6d 3d 55 aa 1f 3e
       0.00089809607 -0.048217967 0.058057237 0.1559232
0002b0 2c b4 20 bd 21 c4 38 be 18 46 36 be 9b 30 6b 3d
       -0.039234325 -0.18043567 -0.17800176 0.0574194
0002c0 36 fb 6d bc a2 f0 33 3e f8 e8 e4 bc 74 a4 35 3e
       -0.014525225 0.17572263 -0.02794312 0.17738515
0002d0 46 93 fa 3d 6e a9 10 be 77 70 ac bd 37 b3 00 be
       0.122351214 -0.14127132 -0.084198885 -0.12568365
0002e0 7a 57 6c 3d 52 33 ef 3d 32 b6 24 be b6 f0 00 3e
       0.05770061 0.116797104 -0.16085127 0.12591824
0002f0 ef 0a 05 3d 84 58 da 3d 86 1f bf 3d 0e f4 3c bd
       0.03248113 0.10661414 0.093321845 -0.046131186
000300 f2 c7 cf bc 9a 62 40 be 84 5c ce 3d 5c 9b bf bd
       -0.025363896 -0.18787614 0.1007624 -0.09355804
000310 30 be f3 bd cc ae 06 bd 9a 00 f3 3d c9 0b 12 3e
       -0.1190151 -0.032881543 0.11865349 0.14262308
000320 79 51 a7 bc 7f ea b7 bc d9 8b 08 be 46 89 37 be
       -0.020424591 -0.022450684 -0.13334598 -0.1792346
000330 0f 33 e4 3d 46 4e 0c 3c d4 04 85 38 ba 0d 04 3e
       0.11142551 0.008563584 6.3428335e-05 0.12895861
000340 f4 c3 81 bb b3 b6 1e bb da 5c 08 3e 3b 46 7b 3d
       -0.003960127 -0.0024217784 0.1331667 0.061346274
000350 91 be 04 be 3b c5 a0 bd 99 ab 83 bd 95 11 3a be
       -0.1296332 -0.07850119 -0.06429214 -0.1817077
000360 23 5f e4 bc 95 d8 02 3e 53 da 3f 3c 1e 44 03 3e
       -0.027877396 0.12777932 0.011709767 0.12818953
000370 3a 5d 10 3e 6c 2f e2 3d 1e 2b e5 3d 92 d2 8e 3d
       0.14098063 0.11044201 0.111898646 0.06973757
000380 94 aa 7c bd 08 b5 b9 3c 70 ad 07 3e 67 49 23 3e
       -0.061686113 0.02266933 0.13249755 0.1594597
000390 f1 21 da 3b 51 41 a7 bc 38 1d 19 3e 3e 79 eb 3d
       0.006656878 -0.020416887 0.14952552 0.114977345
0003a0 df 47 00 3e 7d 7f 07 3e ba 25 85 bd a0 82 1f be
       0.12527417 0.13232227 -0.065013364 -0.15577173
0003b0 27 51 7c bd c1 a3 67 bd 35 7e 35 3e 6a 9e 83 b6
       -0.06160083 -0.056552652 0.17723925 -3.922546e-06
0003c0 53 e0 9f 3d 41 ed 04 3e fc f0 78 3d c3 e2 c2 3d
       0.07806458 0.1298113 0.060776696 0.095159076
0003d0 10 07 10 be 94 05 2c be 06 85 2d be 92 6f 3e be
       -0.14065194 -0.16799003 -0.16945276 -0.18597248
0003e0 c2 3e be bd d8 33 31 3e 14 18 45 3d 6a 66 8e bd
       -0.09289314 0.17304933 0.048118666 -0.06953128
0003f0 33 3c 39 3d bf bb c8 3d 83 51 10 3d e6 6e 34 be
       0.045223426 0.09801435 0.035233986 -0.1762043
