KGCN/kgcn_agg_weights_2_64_books_2.npy (npy, 16512 bytes, 1 tensors)

array f4 [64, 64]
00000000: d59c 3d1a e414 7c0d d2a2 f90d 1b54 a60d
00000010: 284c 27aa 3d10 dab0 527f 238d 0458 0f17
00000020: 0efc 8ab3 085c 872e 2d3c 8e8d a9cc 7aa0
00000030: 79d7 48ac 024a 97a5 2cd2 ee33 20ce 400c
00000040: d35d 0120 597f 0135 9d1f e330 fb8b eb2d
00000050: 5098 d50c 43d9 a1b4 9cde fd0d ff97 020e
00000060: fe84 74a4 dd09 838d 7a4f 240e 03a7 fe8d
00000070: 31c3 330d 729d 25a0 b70e 6d8d 7c7d ef2b
00000080: e32c f834 2deb 3834 075c 65b0 0c09 b29a
00000090: 43a0 80aa 3c90 c78d 31fc 1630 3f3b 3b2d
000000a0: f9e4 c98d 1f21 5131 ac68 1319 12f9 5c31
000000b0: 9221 8faa dc87 ab26 c597 060e bd61 7020
000000c0: 5da0 34ac feec 26ab 5c1b 3bb4 2888 f134
000000d0: 43dd a835 87de 142f bd77 bb8c 98de ca35
000000e0: 68e7 b48c b830 95b4 4910 b921 8c6e f52d
000000f0: 53c6 e50f 4ff1 460d 9e32 500d 718c c99e
00000100: 72ac 9e3b 40e0 863c 83ba 3d3c 040f c33c
00000110: 7d9d beb9 9856 393b f2ed b13b c1c3 8b3c
00000120: 37c9 e43c 75e6 693c 966b e4bb 0946 e1bc
00000130: 9c03 9cbc bdb3 94bc f99f 86bc 819b 743c
00000140: 3747 7f3c 9865 893c 8f0e 743c beeb a2ba
00000150: 1c5a d93c 3571 acbb f40d bd3c acae 0d3c
00000160: 4df4 26bc 3260 8cbc 21c1 e23b 327d 903c
00000170: 409b 7cbc 8908 8bbc bdcf 283c a9dc 7abc
00000180: d32f 223c 1c24 923c a7be 223d 8c20 ba3c
00000190: 5f36 873c 9fdc 7cbc 590c 803c 4b54 1f3d
000001a0: 88e2 383c c0c8 dfbc 8bea 80bc c129 e9bc
000001b0: ede3 58bc a199 8a3c f5bd 1e3c a290 a5bc
000001c0: 3b70 36bc 3b20 a0bc aad1 7bbc e89f d23c
000001d0: 2b32 2e3c 14a8 7d3c 2546 3cbc 64da 8cbc
000001e0: 6a5e d43c aafc ca3c f77f c33b 5b12 84bb
000001f0: 63f7 913c 87f0 0fba 13f7 32bc b8d2 02ba
00000200: 98f2 003b 3ca6 863a a323 353b 5d44 12bb
00000210: f985 3fbb 4411 a9bb e10a 873b 4b71 b9ba
00000220: ab00 21bb 111b 7e3b e120 88bb 6966 163a
00000230: 685f fdb8 c6d1 953b a4ab 89ba d1f9 633b
00000240: 5c07 283b 6ce3 5a3b 2f92 d7ba 0e0f 5b3b
00000250: 96c1 4fba b3fe ba3b 424c 3e3a 62ba a03b
00000260: 1bd8 303a 319b 3b3b fd6d 84bb c6d4 1dbb
00000270: 2b37 2bbb c143 293b 6c31 ba3b 8361 1ebb
00000280: 5533 193b 40b4 d5bb b8e2 faba 3e9e d03a
00000290: f5cc 0d3b 2218 0ebb eab5 163a 904f 5fbb
000002a0: 00c6 de37 607d f83a 980f 37bb 5096 f53a
000002b0: 7949 1fbb f8dd 663b 837e 07bb d560 2bba
000002c0: b0d7 51bb 31c9 e7ba 8bb0 22bb 3df5 61bb
000002d0: c660 2abb b91b 0f3b 2303 9fbb cd4c 463b
000002e0: d8e0 95ba 0548 8a3a 2bda b1bb 2c00 e73b
000002f0: 8e3b 5abb 3dc7 2e3b 5b1e 52bb 3aa0 32b8
00000300: 4051 c38d 3cf1 a035 c0eb cca3 1629 0a0e
00000310: 5cd7 eeb3 72e0 778c 815d c52e 884f 830d
00000320: e585 d58d 9c4f 4328 c427 3c8e 4ca9 1db2
00000330: 87b1 128e 917c d234 85b8 7331 1d3b da0d
00000340: 0494 5ab5 847d 5731 4ab5 41a9 ceec d832
00000350: a380 0cb2 b92e b11c 1dc2 ee27 f409 9c9b
00000360: 13c0 0c0e 5805 208e 41f8 3235 59b7 ab2b
00000370: 4e07 ca8d bd46 7b31 3d12 118e eb90 ce25
00000380: 5dc5 020e fdf1 b30d 8ed6 94b2 67b0 23ad
00000390: 17ca ad98 e5d1 f930 b265 6fa3 9608 5c2f
000003a0: add3 220e 503a 008e a89d 3b24 89e8 492a
000003b0: 3cc3 158e 14fc 3da7 d6c8 b82d c236 17ac
000003c0: a9e6 4fa4 abfe 00ae e640 8b20 5470 8e31
000003d0: 6621 828d df64 699f 94e2 1e8e 7cb7 780d
000003e0: 82da 50ab 70b8 9422 3e26 7d8e 785c fe8d
000003f0: d6f1 47aa cbb5 9816 3603 ba8d 234d 422e
3.9210972e-23 7.767864e-31 1.5385007e-30 1.02507875e-30 -1.4859002e-13 -1.5866203e-09 -5.038151e-31 4.6316883e-25
-6.471974e-08 6.155437e-11 -8.765912e-31 -2.124354e-19 -2.854132e-12 -2.6244474e-16 1.1120969e-07 1.485317e-31
1.0957769e-19 4.824156e-07 1.6525409e-09 2.677857e-11 3.2909516e-31 -3.0146666e-07 1.564592e-30 1.609692e-30
-5.3021715e-17 -8.075873e-31 2.0252827e-30 -1.5694165e-30 5.5393587e-31 -1.4028138e-19 -7.3048976e-31 1.70168e-12
4.622626e-07 1.7221892e-07 -8.3440493e-10 -7.363369e-23 -2.2848571e-13 -1.2299045e-30 5.492807e-10 1.0642875e-11
-1.2442705e-30 3.043233e-09 7.62086e-24 3.2155794e-09 -2.5425197e-13 1.1902333e-15 1.658985e-30 2.036113e-19
-2.5668558e-12 -5.930394e-13 -1.7425685e-07 4.4988815e-07 1.2581371e-06 1.3539579e-10 -2.8883977e-31 1.5114956e-06
-2.7872664e-31 -2.778886e-07 1.2540398e-18 2.7902368e-11 2.2657535e-29 6.1303925e-31 6.4155877e-31 -2.1339788e-20
0.0048423344 0.016464353 0.011580112 0.023810871 -0.00036356962 0.0028280374 0.0054299766 0.017061116
0.027927978 0.014276137 -0.006970833 -0.027499216 -0.01904469 -0.018152112 -0.016433703 0.014929653
0.015580944 0.016772076 0.014896049 -0.0012429876 0.026532225 -0.005262519 0.023077942 0.008647602
-0.010190082 -0.017135713 0.0069199954 0.017637823 -0.015417874 -0.016971843 0.010303435 -0.015311399
0.0098990975 0.017839484 0.0397326 0.022720598 0.016505418 -0.01543346 0.015630888 0.038898747
0.011284478 -0.027317405 -0.015736839 -0.028462293 -0.0132379355 0.01691896 0.009688844 -0.020210568
-0.011135156 -0.019546619 -0.015369812 0.025711015 0.010632078 0.0154819675 -0.011491333 -0.01719398
0.025923926 0.024778683 0.0059661823 -0.0040305085 0.017818158 -0.00054908585 -0.010923165 -0.0004990506
0.0019675847 0.001027293 0.002763965 -0.002231858 -0.002922414 -0.005159529 0.00412117 -0.0014148144
-0.0024567049 0.0038773457 -0.00415431 0.0005737306 -0.00012081751 0.004572126 -0.0010503423 0.0034786353
0.0025639152 0.0033399714 -0.0016446764 0.0033425721 -0.000792527 0.005706632 0.0007259288 0.004905031
0.00067460694 0.0028626437 -0.004041432 -0.0024083122 -0.0026125412 0.0025827738 0.005682161 -0.0024167008
0.0023376544 -0.0065217316 -0.0019141054 0.00159163 0.0021637056 -0.0021681865 0.0005749153 -0.0034074523
2.6556663e-05 0.0018958263 -0.0027932879 0.0018736813 -0.0024305268 0.0035227519 -0.0020674772 -0.00065375614
-0.003201943 -0.0017683861 -0.0024824466 -0.0034478449 -0.0025997623 0.0021836592 -0.004852669 0.003025818
-0.0011434807 0.0010550028 -0.005427619 0.007049581 -0.0033299658 0.0026669048 -0.003206155 -4.258773e-05
-1.2037363e-30 1.1991137e-06 -2.2217568e-17 1.7029595e-30 -1.1121912e-07 -1.9095729e-31 8.9751324e-11 8.092645e-31
-1.3159372e-30 1.0841937e-14 -2.3191936e-30 -9.177096e-09 -1.8081366e-30 3.9206182e-07 3.5466041e-09 1.3449518e-30
-8.142672e-07 3.1357965e-09 -4.3011852e-14 2.5253396e-08 -8.178321e-09 1.1724955e-21 6.626873e-15 -2.5814467e-22
1.7348813e-30 -1.9724096e-30 6.6671424e-07 1.220117e-12 -1.245097e-30 3.6565517e-09 -1.7881411e-30 3.5833504e-16
1.6118764e-30 1.1089983e-30 -1.7327036e-08 -9.3046465e-12 -4.492351e-24 1.817679e-09 -1.2977751e-17 2.0011934e-10
2.006996e-30 -1.5805295e-30 4.06827e-17 1.7933063e-13 -1.845967e-30 -2.636567e-15 2.1007567e-11 -2.1488787e-12
-4.5081347e-17 -2.933002e-11 2.3590462e-19 4.145514e-09 -8.019909e-31 -4.9423108e-20 -1.9584097e-30 7.664176e-31
-7.4199685e-13 4.031076e-18 -3.120307e-30 -1.567622e-30 -1.7758654e-13 2.4671652e-25 -1.1463908e-30 4.4179004e-11
