KGCN/kgcn_agg_weights_0_64_books_2.npy (npy, 16512 bytes, 1 tensors)

array f4 [64, 64]
0.055895902 -0.0839784 0.028967667 -0.072926424 -0.086080566 0.10270116 0.08912165 0.00020238731
0.07347305 0.00066720846 -0.0036966705 0.041245043 0.071288235 -0.06209629 -0.065665655 -8.372644e-15
0.093184106 0.080438495 0.09096538 2.2158494e-22 0.10204073 -0.077517696 -0.037969448 -0.048624355
-0.03317563 -0.08087599 -0.10530205 0.06529675 0.045060348 -0.078356415 0.011296069 0.044437416
0.082527086 -0.09477917 -0.035959795 -0.050874013 -0.08799757 0.061413962 0.0030708287 -0.04376295
0.059374914 -0.08485324 3.4602678e-13 -0.03681317 -2.4938167e-06 0.070727535 -0.17794801 0.069708034
1.3806559e-12 0.07025137 -0.06479444 -0.05491913 -0.0031571896 0.06627251 0.054930143 7.501272e-16
0.06492217 -0.0002560117 2.3515857e-05 0.045577906 -4.830604e-05 0.019602003 -0.17986469 -0.07225002
-0.060795143 0.07514913 -0.0943859 0.060114264 -0.038143612 -0.11395035 -0.083539926 1.49166635e-05
-0.07022103 -0.11160698 0.087556385 -0.08688613 -0.08184664 0.06276681 0.04098647 -1.7099912e-23
-0.106381446 -0.09096494 -0.065508604 -4.9238174e-18 -0.10434287 0.072103485 -0.12162513 -0.016379775
0.048721917 0.0025913976 0.03716805 -0.08756728 -0.024312712 -0.029012602 -0.0008873673 -0.042662036
-0.07170934 0.0034458234 0.0038682497 0.008696526 0.10217236 -0.055255115 0.001103271 -0.12231833
-0.08838256 0.14216277 -7.592743e-05 0.022299772 2.0796168e-07 -0.07501997 0.15201098 -0.080073014
1.1715883e-05 -0.058949526 0.052533753 0.056886718 0.0020396612 -0.08226192 -0.066000886 1.3000971e-30
-0.08826573 1.7310276e-07 -3.6148584e-10 -0.046517506 2.0202435e-06 -0.08713044 0.121195585 0.09703429
-0.068286374 0.08382089 -0.08677972 0.07321956 0.07265772 -0.027521102 -0.088829674 -1.4425697e-15
-0.08759735 -0.10080776 0.09373835 -0.010765205 -0.08685132 0.11127945 0.057823826 0.0027939423
-0.08778295 -0.09432018 -0.0674123 -1.8836575e-08 -0.09639142 -0.020147482 -0.08493037 0.085969456
0.014818934 0.051414955 0.07308109 -0.07058855 0.013727783 0.01078705 -0.008680968 -0.05072027
-0.027861541 0.088359855 0.035784386 0.074278146 0.10588411 -0.064478874 -0.0011147624 -0.121435545
0.009908142 0.12939933 0.0006645109 0.041554622 3.939134e-29 -0.076545015 0.17699292 -0.08177029
-9.636667e-07 -0.05579195 0.07047447 -0.007457182 0.0011256465 -0.07431702 -0.1038411 -0.00048374163
-0.06522644 1.3205139e-28 -4.5849492e-06 -0.063678086 0.00040446696 -0.09449708 0.14737283 0.099302135
0.06930406 -0.15337896 0.09931843 -0.08837952 -0.107729994 0.14299315 0.17337856 3.9415332e-07
0.12751022 0.16813457 -0.10551912 0.1120399 0.15289918 -0.09966098 -0.117502294 5.51615e-11
0.13748601 0.053435493 0.049977116 9.245785e-05 0.13918081 -0.12600526 0.127198 -0.15272649
-0.06674495 -0.13453718 -0.13541362 0.102336735 0.10790815 -0.08330238 0.019803181 0.09300925
0.14649568 -0.13970937 -0.065073125 -0.13539088 -0.16151242 0.12274262 -1.02471186e-13 0.13671966
0.11066342 -0.13997065 0.0008215006 0.07920249 -0.00051905744 0.10325114 -0.21162519 0.05278848
-1.0063179e-05 0.046089627 -0.13159594 -0.11398937 -2.418234e-26 0.12402227 0.14360748 -0.0008944152
0.09706376 0.0006296151 2.550011e-08 0.109682284 -9.015798e-08 0.11291472 -0.21422525 -0.15410163
00000000: 1af3 643d defc abbd 9a4d ed3c 735a 95bd
00000010: 024b b0bd fc54 d23d 6985 b63d ee37 5439
00000020: 0a79 963d 9ae7 2e3a d743 72bb 90f0 283d
00000030: 91ff 913d ae58 7ebd b77b 86bd 01d4 16a8
00000040: 4fd7 be3d f0bc a43d 0f4c ba3d 9cf0 851b
00000050: bbfa d03d 99c1 9ebd da85 1bbd 552a 47bd
00000060: 2be3 07bd 50a2 a5bd 9aa8 d7bd 4dba 853d
00000070: 3391 383d 5479 a0bd 2613 393c 0204 363d
00000080: f603 a93d 951b c2bd 944a 13bd 4561 50bd
00000090: 1238 b4bd 358d 7b3d f53f 493b c740 33bd
000000a0: 1c33 733d 89c7 adbd b7cb c22a 68c9 16bd
000000b0: 725b 27b6 99d9 903d 0138 36be 16c3 8e3d
000000c0: 5f4f c22b f3df 8f3d f3b2 84bd e2f2 60bd
000000d0: dae8 4ebb e2b9 873d 6efe 603d 9e35 5826
000000e0: eaf5 843d 4f39 86b9 eb43 c537 e6af 3a3d
000000f0: 379c 4ab8 6194 a03c 732e 38be d2f7 93bd
00000100: 5404 79bd c9e7 993d 654d c1bd 603a 763d
00000110: 7a3c 1cbd cd5e e9bd fb16 abbd 9542 7a37
00000120: 0bd0 8fbd 3392 e4bd c350 b33d 5bf1 b1bd
00000130: 369f a7bd e38b 803d 6ee1 273d 5561 a599
00000140: 84de d9bd d44b babd 6029 86bd 24a8 b5a2
00000150: b7b1 d5bd feaa 933d 9916 f9bd e12e 86bc
00000160: a290 473d 70d4 293b 863d 183d 7956 b3bd
00000170: 742b c7bc d6ab edbc 369e 68ba 63be 2ebd
00000180: 59dc 92bd 53d3 613b 7682 7d3b e07b 0e3c
00000190: be3f d13d 3053 62bd a29b 903a 0882 fabd
000001a0: ea01 b5bd 1e93 113e 3b3b 9fb8 03ae b63c
000001b0: 124c 5f34 12a4 99bd c4a8 1b3e 52fd a3bd
000001c0: 568f 4437 0f75 71bd a22d 573d 0c02 693d
000001d0: d6ab 053b f078 a8bd 792b 87bd ecf3 d20d
000001e0: aac4 b4bd 20de 3934 9cba c6af 2489 3ebd
000001f0: 8593 0736 7271 b2bd 6435 f83d eab9 c63d
00000200: bad9 8bbd 49aa ab3d 91b9 b1bd 23f4 953d
00000210: 92cd 943d ef73 e1bc 55ec b5bd 6ee5 cfa6
00000220: 3d66 b3bd 4d74 cebd e4f9 bf3d 8b60 30bc
00000230: 1bdf b1bd 7be6 e33d add8 6c3d 931a 373b
00000240: 8cc7 b3bd f02a c1bd 760f 8abd 11ce a1b2
00000250: dd68 c5bd 550c a5bc f9ef adbd c110 b03d
00000260: 1dcb 723c 7d98 523d 8aab 953d bb90 90bd
00000270: 7fea 603c 2bbc 303c 9e3a 0ebc 0fc0 4fbd
00000280: e33d e4bc 03f6 b43d a692 123d 241f 983d
00000290: c5d9 d83d 800d 84bd 381d 92ba 33b3 f8bd
000002a0: c255 223c 4281 043e 9232 2e3a 2e35 2a3d
000002b0: e2bc 4710 a2c3 9cbd a23d 353e 2f77 a7bd
000002c0: 5657 81b5 1a86 64bd eb54 903d 605b f4bb
000002d0: 6e8a 933a 8633 98bd a5aa d4bd b49e fdb9
000002e0: 7195 85bd 2065 2711 6ad8 99b6 a869 82bd
000002f0: a30e d439 af87 c1bd e7e8 163e eb5e cb3d
00000300: 49ef 8d3d 600f 1dbe 7667 cb3d 5200 b5bd
00000310: 8ba1 dcbd cc6c 123e 268a 313e 059c d334
00000320: 0a92 023e 782b 2c3e 691a d8bd 2d75 e53d
00000330: 9a91 1c3e 0e1b ccbd 0ba5 f0bd 549a 722e
00000340: 22c9 0c3e 2ddf 5a3d ceb4 4c3d eee5 c138
00000350: 6a85 0e3e 8607 01be 3140 023e 5564 1cbe
00000360: 94b1 88bd 1dc4 09be dea9 0abe ec95 d13d
00000370: f3fe dc3d 709a aabd 483a a23c a27b be3d
00000380: f702 163e f90f 0fbe 0f45 85bd e8a3 0abe
00000390: 8363 25be 7c60 fb3d 9ebe e6a9 3d00 0c3e
000003a0: 81a3 e23d 7754 0fbe f959 573a ea34 a23d
000003b0: 5b11 08ba 5575 d33d 46b4 58be bc38 583d
000003c0: 06d5 28b7 7ac8 3c3d 16c1 06be 4273 e9bd
000003d0: 847d ef94 63ff fd3d d70d 133e 3077 6aba
000003e0: 5dc9 c63d c10c 253a 560b db32 1ba1 e03d
000003f0: e09c c1b3 d53f e73d dd5d 5bbe d1cc 1dbe
