KGCN/kgcn_agg_weights_1_64_books_2.npy (npy, 16512 bytes, 1 tensors)

array f4 [64, 64]
-0.027049674 0.00811001 0.11557431 -0.020480955 0.06581194 -0.030602476 -0.00018171758 0.009713716
0.0095934635 0.0005030381 0.13117974 -0.00029864573 0.02817782 -0.001869631 4.706902e-05 -0.10718548
-0.02952863 -0.10084044 0.000488569 0.0987407 -0.033127297 0.05791694 0.07680426 -0.13296169
0.014760769 0.04247826 -0.07958383 0.0904681 0.0012485195 0.009203566 0.0018361529 -0.001838418
-0.029562717 -0.12681761 -0.035105333 0.010877696 -1.946198e-08 0.06524759 0.015844543 0.016446587
-0.0014738432 -0.07296597 -0.059928976 -0.14660026 -0.04018947 -0.06236452 -0.08958221 -0.00022854545
-0.13079587 3.1473042e-05 0.03412371 0.09091504 -0.07150252 -0.036882676 -0.10302401 0.034362026
0.0009943256 -0.0011306204 -0.00039456793 -0.08818707 -0.08793517 0.022722382 0.027540676 -0.14001437
0.035795096 0.04257676 -0.031043256 -0.04605251 -0.05843606 -0.008602083 -0.029291084 0.00040391917
-9.601168e-05 0.083491564 -0.012362121 0.024815846 0.09260549 0.062406193 -0.038433764 0.07507425
0.06285773 -0.08792856 -0.0022790886 0.00029447657 -0.016355159 0.047897756 0.12144959 -0.015468727
-0.05570961 0.10015811 0.058652777 0.039751485 -0.0701493 -0.12744291 0.00065610517 0.03683103
-0.07844227 0.031601872 -0.13992359 0.067549996 -0.002189067 -0.071837075 -0.10271445 -0.0024750645
-0.018545248 -0.121204086 0.07928042 -0.0070015765 0.03705862 0.042124722 0.0756505 -0.068582155
0.038546547 -0.02233502 -0.11544038 0.12961748 -4.7311463e-05 0.05561801 -0.14353664 -0.08234986
0.08089607 0.0171288 0.0025145772 0.00015944614 -0.10353183 0.0009358451 0.090338975 -0.0027349803
0.010607964 0.055484064 0.073684685 -0.01891375 -0.117635325 -0.00019112462 -0.11964058 -0.061903503
-2.6101283e-05 -0.00318562 0.060590178 -0.0102605475 6.378633e-05 0.10320014 0.11096246 -0.037325498
-0.070177935 0.0011328866 -0.012920233 -0.110379234 0.0057502063 0.00033809087 0.08563355 -0.015795493
-0.0009217984 -0.10298104 0.044448715 -0.0007006561 0.001409309 0.09312429 -0.06071557 0.039771862
-0.08166302 -0.12548704 -0.055325247 -0.05932973 -0.13168316 -0.092410244 -0.102745645 -0.008174094
-0.12821785 -0.06405009 -0.009038444 0.08635868 -0.01098575 -0.11656491 -0.09576587 0.011066787
-5.066487e-05 -0.13003036 0.038018614 0.08516722 0.14316499 -0.00026852018 0.0035132705 0.0002666239
0.0009276149 -0.002392323 -0.05274558 -0.037977345 0.07102002 0.08050944 -0.006812516 -0.057813052
0.005522401 0.06093008 0.119641684 -0.06594844 -0.112712294 -0.11978529 -0.13359277 0.023617914
0.027747024 0.12703067 0.1448446 -0.09619941 -0.00044315192 0.124055244 -0.0443665 0.09973717
-2.9289251e-06 0.082365334 -0.08446685 -0.03093737 -0.09224755 -0.0067256163 -0.005897856 0.11568655
0.005067614 0.096958786 0.0047548786 0.0024677648 -0.10807953 -0.02312617 0.067729905 0.03872545
-0.05659306 -0.051201474 0.044415925 -0.028819932 -0.061906256 -0.063604005 -0.01309527 0.053443927
0.033457216 -0.07514886 -0.13310142 0.027251532 0.02483936 0.053640343 0.026494108 -0.13756257
-0.14678848 -0.045561388 0.046953302 0.088636026 -0.09464829 -0.0006841875 0.036523804 5.7164205e-05
-0.060058393 -0.033721223 0.06256948 -0.026406089 -0.0022578896 0.14532655 -0.008912146 0.1384179
00000000: 4797 ddbc d9df 043c 39b2 ec3d adc7 a7bc
00000010: 69c8 863d 0bb2 fabc 718b 3eb9 4726 1f3c
00000020: e72d 1d3c 51de 033a fb53 063e 8d93 9cb9
00000030: 2cd5 e63c 680e f5ba fa6b 4538 1084 dbbd
00000040: 07e6 f1bc 6f85 cebd 5013 003a 9038 ca3d
00000050: 7db0 07bd 503a 6d3d 8d4b 9d3d 1c27 08be
00000060: 27d7 713c affd 2d3d d9fc a2bd 5747 b93d
00000070: 5da5 a33a 8eca 163c 11ab f03a 12f7 f0ba
00000080: 832d f2bc 7adc 01be 9cca 0fbd 5d38 323c
00000090: 592d a7b2 87a0 853d 6acc 813c feba 863c
000000a0: f92d c1ba 2f6f 95bd 1678 75bd 611e 16be
000000b0: b79d 24bd f071 7fbd e176 b7bd b4a5 6fb9
000000c0: 5aef 05be ec01 0438 4ec5 0b3d aa31 ba3d
000000d0: ea6f 92bd 4a12 17bd 41fe d2bd 32bf 0c3d
000000e0: 0854 823a 5331 94ba 03de ceb9 6c9b b4bd
000000f0: 5b17 b4bd 4a24 ba3c fc9c e13c ed5f 0fbe
00000100: e19d 123d f864 2e3d 6d4e febc 8fa1 3cbd
00000110: a65a 6fbd c0ef 0cbc dbf3 efbc 1dc5 d339
00000120: e159 c9b8 a0fd aa3d 7e8a 4abc 9a4a cb3c
00000130: f2a7 bd3d a39d 7f3d b96c 1dbd 87c0 993d
00000140: 8ebb 803d e413 b4bd c35c 15bb fa63 9a39
00000150: 41fb 85bc 7030 443d 90ba f83d 8b70 7dbc
00000160: c32f 64bd b21f cd3d e53d 703d 74d2 223d
00000170: 70aa 8fbd 6580 02be 79fe 2b3a 22dc 163d
00000180: 57a6 a0bd f770 013d 2148 0fbe a757 8a3d
00000190: 7376 0fbb 511f 93bd f45b d2bd b134 22bb
000001a0: 34ec 97bc d939 f8bd c65d a23d 7b6d e5bb
000001b0: c8ca 173d f98a 2c3d a6ee 9a3d cd74 8cbd
000001c0: fce2 1d3d eff7 b6bc 026c ecbd 72ba 043e
000001d0: 4c70 46b8 b6cf 633d 45fb 12be 0ba7 a8bd
000001e0: d7ac a53d b251 8c3c 9bcb 243b ff30 2739
000001f0: 7f08 d4bd 8053 753a a403 b93d 5b3d 33bb
00000200: 07cd 2d3c 4243 633d ffe7 963d 02f1 9abc
00000210: caea f0bd a068 48b9 1f06 f5bd 878e 7dbd
00000220: 14f4 dab7 d6c5 50bb 682d 783d db1b 28bc
00000230: 06c5 8538 985a d33d 4940 e33d 9fe2 18bd
00000240: 73b9 8fbd 5e7d 943a 63af 53bc 820e e2bd
00000250: 3a6c bc3b ca41 b139 a560 af3d 8d65 81bc
00000260: d8a4 71ba b9e7 d2bd db0f 363d 3cac 37ba
00000270: 90b8 b83a f3b7 be3d e4b0 78bd d2e7 223d
00000280: f13e a7bd ad7f 00be ba9c 62bd bb03 73bd
00000290: f3d7 06be 9541 bdbd 4f6c d2bd a3ec 05bc
000002a0: 8a4b 03be b22c 83bd fb15 14bc d2dc b03d
000002b0: 93fd 33bc 95b9 eebd e520 c4bd 7851 353c
000002c0: fd80 54b8 ae26 05be 68b9 1b3d 276c ae3d
000002d0: d899 123e 2bc8 8cb9 e63e 663b a7c9 8b39
000002e0: 2f2b 733a 85c8 1cbb c00b 58bd 228e 1bbd
000002f0: f272 913d 22e2 a43d 873b dfbb 61cd 6cbd
00000300: 42f5 b43b d291 793d b306 f53d fa0f 87bd
00000310: b4d5 e6bd fd51 f5bd 8bcc 08be 5b7a c13c
00000320: ba4d e33c 5414 023e 2552 143e 3204 c5bd
00000330: d856 e8b9 ad10 fe3d a6b9 35bd 0043 cc3d
00000340: 8d8e 44b6 28af a83d f5fc acbd 5e70 fdbc
00000350: 49ec bcbd 8f62 dcbb cd42 c1bb 12ed ec3d
00000360: 3a0e a63b 5492 c63d d0ce 9b3b 39ba 213b
00000370: cd58 ddbd 1873 bdbc fab5 8a3d 949e 1e3d
00000380: 20ce 67bd a3b8 51bd 79ed 353d c717 ecbc
00000390: 6a91 7dbd d142 82bd 8b8d 56bc 05e8 5a3d
000003a0: 6f0a 093d a5e7 99bd bd4b 08be 9b3e df3c
000003b0: ea7b cb3c fab5 5b3d 2c0a d93c 34dd 0cbe
000003c0: b84f 16be 949e 3abd 1b52 403d ce86 b53d
000003d0: f6d6 c1bd 0c5b 33ba fc99 153d 99c3 6f38
000003e0: caff 75bd 441f 0abd 6d24 803d 9551 d8bc
000003f0: 1af9 13bb 7cd0 143e 4004 12bc 6cbd 0d3e
