KGCN/kgcn_agg_weights_2_64_books_2.npy (npy, 16512 bytes, 1 tensors)

array f4 [64, 64]
000000 e3 39 80 bd a6 d6 9b 3d bf 8d 99 3c cc 76 c1 3d
       -0.06261041 0.076093 0.018744348 0.09446487
000010 a7 bd 80 3d 6a 0e 3d bd 53 d7 04 3e 72 6e 87 3d
       0.06286173 -0.046156324 0.12972765 0.06612863
000020 8f 70 69 3d cd e8 b3 bd 1f 1f 98 3d 33 38 7c 3d
       0.05699211 -0.087846376 0.07427811 0.061577033
000030 bc d7 f2 bd 2a f8 c3 3d 13 28 f7 3b 5f 7e 99 3d
       -0.11857554 0.09568818 0.007542619 0.074948065
000040 45 bc 88 3d 38 09 0a 3e 97 8b e4 3d 5b 73 80 bd
       0.066765346 0.13480079 0.11159437 -0.06272002
000050 d3 b9 f3 3c 63 b8 68 3d 4f ad be bd ad 82 cd 3d
       0.029751694 0.05681647 -0.093104 0.1003469
000060 f7 2e a5 bd c8 ea 7f 3c 64 96 6a 3b 4a 9d 49 bd
       -0.080655985 0.015619941 0.0035795206 -0.04922227
000070 e0 5b 9c 3d 5c 39 ef bd 2c 00 70 3d b1 dc 48 3d
       0.07634711 -0.11680862 0.058593914 0.049038593
000080 9e 7a 99 bd dd 0a 8a bd 8c e2 98 3d 71 93 cc bd
       -0.074940905 -0.06740353 0.074650854 -0.0998906
000090 27 ca c6 bd be bd 8c 3d 3a dd 0e 3e 30 97 b8 bd
       -0.09706526 0.06872128 0.13951579 -0.09013212
0000a0 37 27 8f bd 9d b7 a3 3d cc bd 80 3d 66 9b bd bd
       -0.069899015 0.07994006 0.06286201 -0.092581555
0000b0 d7 5d f4 3d 45 da 13 3e 00 5a b9 bd f6 c3 72 3d
       0.11931961 0.14438732 -0.09050369 0.059268914
0000c0 84 73 e7 bd e4 bf 03 3d 84 e9 b1 3d dd c1 9a bd
       -0.1130133 0.032165423 0.08687118 -0.07556508
0000d0 e6 72 31 3d 3d e2 8a 3b c0 58 1c bd a6 5c dc 3c
       0.043322466 0.0042383955 -0.038170576 0.026899647
0000e0 9a a7 63 3d 8b fa 8e 3b 02 fb 47 bd e0 01 4d 3d
       0.05557976 0.004363363 -0.048823364 0.050050616
0000f0 dd a2 8f bd c4 1c 96 3d db b7 a6 3d ff 41 a5 bc
       -0.070134856 0.07329705 0.081405364 -0.020173071
000100 fd d0 e7 bd 7e 46 9c 3d c1 43 d1 3d 83 2b 27 3e
       -0.11319158 0.07630633 0.10218001 0.16325192
000110 a8 ea 16 3e 13 70 e3 bd 27 29 9a 3d 95 cb 3b 3e
       0.14737952 -0.11105361 0.075273804 0.18339379
000120 49 ab 09 3e 08 cf e7 bd 54 d2 26 3e 8a 26 41 3e
       0.13444246 -0.11318785 0.16291171 0.18862358
000130 f2 23 1b bd d1 96 f1 3c e2 cb da 3d 25 77 d7 3d
       -0.037876077 0.02949086 0.10683419 0.10520772
000140 89 a6 50 3e 9b 89 da 3d ee 95 ef 3d a9 08 b0 bd
       0.20376028 0.106707774 0.11698519 -0.08595402
000150 93 f1 0b 3d 45 d2 0f 3e cc 1b a6 bc b8 5b e6 3d
       0.03416593 0.14045055 -0.020276926 0.11247963
000160 47 23 32 bd b1 26 2a 3e 13 7c 1c 3e 33 74 07 be
       -0.043490674 0.16616322 0.15281706 -0.1322792
000170 c3 b5 1f 3e 3a 47 fd bd 59 b5 d3 3d 25 3c e3 3c
       0.1559668 -0.12367101 0.10337324 0.02773864
000180 5a 4c c2 3c 46 aa 08 be 06 f7 1f 3e 1f 38 95 bd
       0.023718048 -0.13346204 0.15621576 -0.07286095
000190 56 69 e1 bd b0 29 3c 3e d0 07 98 3d ab 37 ab bd
       -0.11006419 0.18375278 0.07423365 -0.08360227
0001a0 c6 38 8b bd 3c 76 23 3e 62 fd d3 3d c8 ed 99 bd
       -0.06797938 0.15963072 0.10351063 -0.07516056
0001b0 38 71 ac 3d 8d 3e d5 3d b2 cc d7 bd 9d 6c e9 3d
       0.08420032 0.10412321 -0.105370894 0.113976695
0001c0 ca d4 07 be 8a ae 0d 3e 02 ea 0f 3e 6f b8 96 bd
       -0.13264766 0.13836113 0.1405411 -0.07359397
0001d0 67 04 bd 3d 6e 32 fa 3d 06 91 0b be 44 fa 00 3e
       0.09229355 0.1221665 -0.13629541 0.12595469
0001e0 08 80 b3 3d 63 e0 20 3e 45 15 19 be 79 09 8d 3d
       0.087646544 0.15710597 -0.1494952 0.068865724
0001f0 9e f1 ff bd 0d 3a 30 3d 55 97 ae 3b b3 bf d6 bd
       -0.12497257 0.04302411 0.005328099 -0.104857825
000200 c3 9d d5 bd 1f c6 8f 3d 2e c1 b7 3d 29 93 b8 3d
       -0.10430481 0.070202105 0.08972393 0.090124436
000210 c7 26 a7 3d 99 9c 9b bd 4f 6e 86 3d 79 47 1b 3e
       0.08161693 -0.07598228 0.065640084 0.15163983
000220 66 b0 b1 3d 59 87 c7 bd c4 6d 87 3d ea e6 ed 3d
       0.086762235 -0.097426124 0.06612733 0.11616309
000230 8d e2 99 bd 3f c3 88 3d 23 d2 32 3d 4f 0a b2 3d
       -0.07513914 0.06677865 0.043657433 0.086933725
000240 98 64 4c 3d 5e 2e 46 3c 21 b4 a6 3d 5b 2e 9a bd
       0.04990062 0.012096016 0.081398256 -0.07528373
000250 0e d1 a7 3d 60 c6 18 3e a2 ed c9 bd c4 4d b1 3d
       0.08194171 0.14919424 -0.09859778 0.08657411
000260 e5 cb 80 bd 4a b9 5b 3d 04 7e de 3d 1e b1 a8 bd
       -0.0628889 0.053643502 0.10863879 -0.082369074
000270 4e 13 c3 3d 85 6f 07 be d9 bf 8b 3d ef b7 83 3d
       0.095251665 -0.13226135 0.068237014 0.06431567
000280 33 be 03 3c e8 0b d2 bd a4 ba 04 3e da bc 9f bd
       0.0080409525 -0.10256177 0.12961823 -0.077996925
000290 c9 5a 95 bd 67 54 09 3e 20 3d b7 3d 64 bc 52 bd
       -0.072927065 0.13411103 0.089472055 -0.051449195
0002a0 73 6b 9e bd d0 b5 09 3e f7 96 87 3d 2e e8 b7 bd
       -0.07735338 0.13448262 0.06620591 -0.08979832
0002b0 3a 9e 2b 3d 9d 8e 98 3d ea c8 89 bd ad 17 61 3d
       0.041898943 0.07449076 -0.067277744 0.05495422
0002c0 29 42 ab bd 23 30 f6 3c 7f e9 a4 3d f8 e9 ac bd
       -0.083622284 0.03005225 0.08052348 -0.084430635
0002d0 a2 f4 65 3d 00 60 aa 3d 13 e8 ee bd 46 59 82 3d
       0.056141503 0.08319092 -0.116653584 0.06364684
0002e0 01 ad 90 3d 81 0e a9 3d 51 60 f1 bd d5 5b 95 3d
       0.07064248 0.082547195 -0.11785949 0.07292906
0002f0 f7 87 cc bd e9 f5 2c 3d a3 21 91 3d 68 c1 29 bc
       -0.09986871 0.042226706 0.07086494 -0.010361053
000300 83 e8 f8 bd 39 d0 06 3e a9 af df 3d 06 1a 1d 3e
       -0.12153723 0.13165368 0.109221764 0.15341958
000310 37 4d 09 3e eb bd 1c be 45 dd 0a 3c 98 52 dd 3d
       0.13408361 -0.15306823 0.008475606 0.10806769
000320 5b 88 f3 3d b4 77 df bd 9c f2 e3 3d 80 e0 0c 3e
       0.11891242 -0.109115034 0.111302584 0.13757515
000330 d2 54 1c bd 11 9b a7 3d 13 c6 0a 3e 9c 31 7b 3d
       -0.03816683 0.081838734 0.13552122 0.061326608
000340 a8 ea 04 3e b6 a6 5a 3c 17 85 e4 3d a5 45 ab bd
       0.1298014 0.013345411 0.111581974 -0.08362893
000350 80 58 4f 3d aa 10 b1 3d 09 1c 1e be d2 d8 ab 3d
       0.05062151 0.086457565 -0.15440382 0.083909646
000360 1f 76 0f be 07 94 c9 3d c4 63 0e 3e 0c f9 f9 bd
       -0.14009903 0.09842687 0.13905245 -0.12205705
000370 1c 03 1e 3e 84 f7 ef bc cc 99 f5 3d e6 ff 56 3d
       0.15430874 -0.02929283 0.11992225 0.052490138
000380 3b 53 a8 bd eb 41 d4 bd 89 18 e8 3d 5b d2 da bd
       -0.08219 -0.10364135 0.11332805 -0.10684653
000390 44 de 60 bc d8 93 1c 3e 96 e7 d6 3d 30 2e b8 bd
       -0.013724867 0.15290773 0.1049339 -0.089931846
0003a0 29 18 ac bd 4e 48 46 3e 6d 7c 54 3d 69 43 22 be
       -0.08403046 0.1936352 0.051876474 -0.15846027
0003b0 8c 16 0a 3e b2 18 1c 3d 72 31 03 be 02 f5 8e 3c
       0.13485163 0.03810949 -0.1281183 0.017450813
0003c0 f7 c4 9d bd 85 5e ce 3d 1a c8 9d 3d e7 da de bd
       -0.07703584 0.10076622 0.07704182 -0.10881596
0003d0 cc 9c 88 3d e0 d2 e3 3d c5 36 f7 bd 9c 88 23 3e
       0.06670532 0.111242056 -0.12070993 0.15970081
0003e0 cd de 36 3d c9 98 a0 3d bd 86 0a be ca c6 90 3d
       0.044646073 0.078416415 -0.13527961 0.07069166
0003f0 c9 da ee bd 31 fb 66 3d 83 0b ca 3d e2 6c ff bd
       -0.11662824 0.0563919 0.09865477 -0.124719396
