KGCN/kgcn_agg_weights_0_64_books_2.npy (npy, 16512 bytes, 1 tensors)

array f4 [64, 64]
00000000: f6ca bb32 8d1a d5a8 7f60 6d8e d5f7 ab32
00000010: e09d 6bb4 37c8 9433 c7c8 0133 1c25 2224
00000020: f4df 4833 3167 b532 e022 8f33 a30f d432
00000030: a9f4 6933 6174 f88d 8326 6233 8926 920d
00000040: 2ea3 3f8e d55c 7633 e797 b633 7b9a d08d
00000050: e47f 08aa 7551 7a33 2e53 eb32 3584 9d2e
00000060: 5f9d d2a2 c821 3f0d 94c3 4db5 6e43 2834
00000070: 5d92 3a33 6317 f332 3fb8 9335 d457 da32
00000080: 67a8 b132 1a67 9333 88d4 ed32 3bd9 4d33
00000090: c0e6 1428 7e70 f732 0213 f38d b80b 6533
000000a0: c54e 9e33 0db0 b1b3 bbd0 5e33 ea7c 0999
000000b0: df8c d70d 6047 c50a b7cd 6aad e183 b932
000000c0: 969b fc9d 382e 342e 1c6d 4e33 2edc 1f33
000000d0: da91 00a6 8314 949c 09e7 8333 6387 0fb4
000000e0: 791f f8af 4cc4 5bb4 15f1 ec32 e57b 7233
000000f0: 3076 9a35 68f0 f995 5ed9 3934 4950 8433
00000100: 547f 5f33 b4d6 a7ac 1910 11ad 2ce7 5235
00000110: 58c5 6133 96bf a333 1b24 3833 fd2b 898d
00000120: 8d9b deb3 6fd8 ad33 2ae5 2333 daf9 8233
00000130: ac68 1334 9692 7c8d d27b 8533 42ca 3da9
00000140: 0fe6 f78d da1e a233 9697 5d33 c061 fd0d
00000150: caa3 7e8d fed2 8533 299f b033 4c4c 4b34
00000160: 8a9d 3732 a9a6 06a7 b2fc 5035 1219 d733
00000170: 3d2a ae33 b737 5133 9f8b 7035 b362 ae33
00000180: 464c 1e32 2465 c933 f5fc cd33 353d 8433
00000190: d123 0d26 9efe 2133 be5c f08d 327b 9433
000001a0: 8764 3233 a85d c224 ce25 3c33 e662 00b2
000001b0: 90af 590e 1879 c18d a132 210e 83c8 2633
000001c0: 29bc 0b0e 6646 fab1 66a0 8633 64df a833
000001d0: 1c13 d48d add0 9aa8 63a2 4b33 ce07 8334
000001e0: 8817 c394 0025 9a33 c697 3934 d4a0 1633
000001f0: 9539 cd32 d293 ce33 ea90 6c33 54e7 10b4
00000200: 81ec 9735 d3b7 bb2a 4dd0 a7b3 5d24 6a35
00000210: 5a76 8235 0adc 4836 5059 0135 a0ea f889
00000220: 7574 1435 af8e 0436 a739 3135 f5c4 c535
00000230: 0002 4736 fdce 318e fd36 0b36 9a18 d631
00000240: aa65 858d 36e1 2b36 d46c ca35 a42a ed33
00000250: 6fc2 1035 64de 5a35 8ff5 0f36 926b 1791
00000260: 1ef3 4fa1 5f3e dc8d 3ee5 9eb1 6166 0e36
00000270: 9359 0136 79d7 1f35 ed75 8035 b9f8 2636
00000280: b976 9632 7eba b434 03d6 0036 b6c1 cb35
00000290: c619 94b3 e746 d935 5ddc 508d 7123 4b35
000002a0: 8bde 2636 ed7d 172a 014f 1835 d179 4eae
000002b0: 60da 049e 4aa1 fa19 788b 130e 780f 4a35
000002c0: 2b88 460e cf2d 2f1e a01d ae35 b0db 2635
000002d0: 5037 3b0e 34fb 0a8e 4898 ac35 3859 3c35
000002e0: 0bcf 65ae 5fe7 1136 993f 1536 2588 9635
000002f0: ecd3 5f35 acd2 2b18 da9a 4735 6069 b535
00000300: af97 e032 b3cd 05b3 f2d5 248e c74b dc32
00000310: e3f5 e032 2d64 c033 d307 af32 dc37 e90f
00000320: eb42 0bb5 0400 1133 a349 de32 6577 de32
00000330: 812c 2233 23d6 b72f a2e6 3133 c3ce 2baa
00000340: 8219 598c 5c44 9433 8d99 0533 b9b6 310e
00000350: c327 b48d 8bd3 9533 abce 2e33 07f8 4f2a
00000360: bd04 910d c3ac 030e c102 26b0 6a5c 4233
00000370: 33ed 3333 7820 6b33 09a9 b332 8128 1433
00000380: 7f9f 09b5 0e86 3833 c2ab dc32 b07f 1b33
00000390: 4753 890c b29e 9234 8661 6b0e 129f 6b33
000003a0: e5ca 4933 c86e 67a2 5a99 1034 ab7a 9091
000003b0: 9549 0b2a 5c8f a920 df99 0bb4 b2c8 c432
000003c0: a999 f38e 83ae 5f8e ba67 5133 bce8 6034
000003d0: 88c4 c18d 8671 b92d 774c 6b33 8c9c 1d32
000003e0: 70bb 688e 1d28 7a33 2da8 a133 0d30 8733
000003f0: 8d8d 0e33 86ea 28af cba6 e432 8576 3833
2.1861961e-08 -2.3659265e-14 -2.9258967e-30 2.0019721e-08 -2.1943515e-07 6.928206e-08 3.021776e-08 3.5159583e-17
4.6769813e-08 2.11181e-08 6.6653e-08 2.4687159e-08 5.4472057e-08 -1.5312197e-30 5.265475e-08 9.007222e-31
-2.3621136e-30 5.736077e-08 8.502666e-08 -1.285618e-30 -1.2123597e-13 5.8281746e-08 2.7395426e-08 7.163018e-11
-5.7087237e-18 5.889708e-31 -7.6653055e-07 1.567075e-07 4.3439616e-08 2.8299558e-08 1.1005976e-06 2.541848e-08
2.0682092e-08 6.863975e-08 2.768708e-08 4.7927852e-08 8.265686e-15 2.880574e-08 -1.4980607e-30 5.3328876e-08
7.3717764e-08 -8.274228e-08 5.1878242e-08 -7.10796e-24 1.32843115e-30 1.8997258e-32 -1.3347038e-11 2.1596806e-08
-6.6864717e-21 4.0968312e-11 4.8062347e-08 3.7220325e-08 -4.4606587e-16 -9.799121e-22 6.142188e-08 -1.3367166e-07
-4.51333e-10 -2.0467377e-07 2.7583647e-08 5.6457697e-08 1.1508291e-06 -1.00949593e-25 1.7308545e-07 6.161333e-08
5.2037038e-08 -4.7702623e-12 -8.24587e-12 7.8567496e-07 5.2566378e-08 7.625128e-08 4.2873676e-08 -8.453867e-31
-1.0365975e-07 8.095309e-08 3.815982e-08 6.0990445e-08 1.3728521e-07 -7.782994e-31 6.215818e-08 -4.214186e-14
-1.5277935e-30 7.549325e-08 5.159344e-08 1.5615861e-30 -7.8466947e-31 6.2316744e-08 8.22459e-08 1.8933605e-07
1.0687822e-08 -1.8686582e-15 7.785376e-07 1.0016278e-07 8.1101895e-08 4.8712277e-08 8.961014e-07 8.12046e-08
9.214153e-09 9.378189e-08 9.592069e-08 6.1578625e-08 4.896774e-16 3.7717307e-08 -1.4813469e-30 6.914196e-08
4.1535284e-08 8.429275e-17 4.3806544e-08 -7.4730675e-09 2.6831845e-30 -1.1923696e-30 1.986916e-30 3.883225e-08
1.7223669e-30 -7.283961e-09 6.2690376e-08 7.863744e-08 -1.3070109e-30 -1.7187933e-14 4.741231e-08 2.440633e-07
-1.969925e-26 7.177914e-08 1.7284682e-07 3.507087e-08 2.3891326e-08 9.619511e-08 5.507983e-08 -1.3495202e-07
1.1319208e-06 3.3345427e-13 -7.814433e-08 8.722471e-07 9.7202e-07 2.9930402e-06 4.818621e-07 -5.992447e-33
5.5303764e-07 1.9752586e-06 6.6021533e-07 1.4734966e-06 2.9654475e-06 -2.1916596e-30 2.0744621e-06 6.2310166e-09
-8.221233e-31 2.5612076e-06 1.5081846e-06 1.1043929e-07 5.392712e-07 8.153495e-07 2.1451594e-06 -1.1944947e-28
-7.045609e-19 -1.3573562e-30 -4.624467e-09 2.1219241e-06 1.9274637e-06 5.954567e-07 9.571064e-07 2.4880703e-06
1.7516287e-08 3.3663304e-07 1.9198058e-06 1.5181056e-06 -6.896475e-08 1.6188395e-06 -6.43602e-31 7.5674967e-07
2.4865465e-06 1.3455183e-13 5.673938e-07 -4.6947172e-11 -7.033181e-21 2.5914538e-23 1.81863e-30 7.5273374e-07
2.4470947e-30 9.273896e-21 1.2972632e-06 6.2159506e-07 2.3076162e-30 -1.7130763e-30 1.2859318e-06 7.016529e-07
-5.2252463e-11 2.174136e-06 2.223975e-06 1.1215494e-06 8.338236e-07 2.2207594e-24 7.4358616e-07 1.3516219e-06
2.614601e-08 -3.1153558e-08 -2.0317572e-30 2.564583e-08 2.6188848e-08 8.9589186e-08 2.037624e-08 2.299709e-29
-5.1878914e-07 3.3760458e-08 2.5877688e-08 2.5898496e-08 3.775904e-08 3.343966e-10 4.1420783e-08 -1.5259586e-13
-1.6724748e-31 6.9042216e-08 3.110613e-08 2.1904912e-30 -1.1102929e-30 6.9768326e-08 4.0700495e-08 1.8471345e-13
8.937456e-31 1.6230178e-30 -6.039436e-10 4.5253195e-08 4.1892417e-08 5.474473e-08 2.0915211e-08 3.4495773e-08
-5.1268574e-07 4.296276e-08 2.5689477e-08 3.620488e-08 2.1158313e-31 2.7310085e-07 2.9012942e-30 5.4859875e-08
4.698349e-08 -3.1364985e-18 1.3466834e-07 -2.2794794e-28 1.2371209e-13 2.872458e-19 -1.3001362e-07 2.2908669e-08
-6.0052094e-30 -2.7570897e-30 4.8755943e-08 2.0946294e-07 -1.19418565e-30 2.108248e-11 5.4784746e-08 9.174197e-09
-2.8686456e-30 5.8244144e-08 7.527738e-08 6.295168e-08 3.319069e-08 -1.536283e-10 2.6618542e-08 4.294863e-08
