KGCN/kgcn_agg_weights_0_64_books_2.npy (npy, 16512 bytes, 1 tensors)

array f4 [64, 64]
-0.008226438 -0.0098738605 0.0008328863 -0.014178803 -0.00041637814 0.018408814 6.454841e-31 -0.016089832
-0.0013968842 -7.2040285e-07 -4.194812e-31 -1.0197787e-30 -0.0052905036 -2.1382645e-30 -0.010989061 4.4340595e-07
-0.009573492 1.8858411e-07 0.0022036433 -0.038082674 0.025165532 4.724493e-10 1.6618277e-14 1.8591587e-30
-1.1508755e-12 0.0074193194 -0.0003717142 0.009732295 -0.017889166 -0.00823468 -0.0024789055 -0.03153826
0.002178781 1.9144805e-05 1.410943e-17 -0.040914256 -0.013390389 0.026330495 0.010142575 -0.012459093
-1.0797752e-30 0.035466727 1.0504244e-07 -0.02485852 -0.010574966 -2.2541748e-11 -0.055005815 -0.020497097
-0.011778481 1.870139e-23 0.0026453668 -0.03501238 -6.549199e-07 -3.300207e-08 -0.028429342 0.019426735
0.03748471 0.04705642 1.8252565e-31 -1.8816658e-12 -0.011388917 0.017957302 0.002667573 -0.0076925866
-0.12548983 -0.044432417 -0.09824058 -0.12199714 -0.11400815 0.14440128 2.0341098e-08 -0.13340189
0.17341034 -7.754969e-32 1.6587456e-09 3.4323325e-31 -0.11376772 7.2582816e-25 0.18582933 3.62542e-14
-0.04415837 -6.1704585e-31 0.13386743 0.1873793 0.15731192 -3.4374256e-10 -6.113699e-13 6.011504e-29
-9.14402e-16 0.14831989 -0.10897706 -0.12055533 -0.11896348 -0.11550083 -0.07540985 -0.1344913
-0.17672332 -0.096721366 1.3058619e-09 -0.15021685 0.16760945 -0.10470503 -0.107106574 -0.10250008
2.4742697e-12 0.15037708 -3.8896014e-17 -0.10237899 -0.09870726 -3.7004705e-11 -0.14445227 -0.14114472
-0.14438722 -4.3609974e-15 -0.11470403 -0.13481891 1.5659307e-28 -2.1841221e-30 -0.18186648 -0.14456877
-0.10818242 0.14286807 2.3676927e-16 -1.984566e-31 0.17237031 0.16577019 -0.09273896 -0.105574116
-0.10900606 -0.10436861 -0.096639566 -0.12499088 -0.10111684 0.14327486 -2.2835894e-30 -0.106423005
0.16288716 -2.9853447e-31 -7.395848e-32 -1.2472331e-21 -0.08255611 -2.927721e-30 0.17145233 1.14708865e-08
-0.08584418 1.3326853e-30 0.14913094 0.16770576 0.14735991 2.0412565e-30 -6.1420227e-13 -2.8024968e-30
2.9900399e-13 0.14774553 -0.10680119 -0.06511365 -0.10347866 -0.112661935 -0.0971467 -0.08697658
-0.15960084 -0.073882125 -1.4309125e-19 -0.15821813 0.17470658 -0.069280215 -0.09411458 -0.03277378
6.259605e-31 0.14328566 -1.7799009e-16 -0.10829323 -0.0862181 -2.5768864e-30 -0.0810462 -0.13684474
-0.10690428 1.0634917e-30 -0.10721703 -0.11295764 7.3109766e-07 -5.5813366e-08 -0.16531385 -0.07531616
-0.07935028 0.09173001 1.874168e-08 4.117116e-10 0.1479332 0.12286584 -0.097747326 -0.094964266
0.011718657 0.015172639 -0.004004276 0.015738033 -0.033541236 -0.08741536 3.1632798e-08 0.003368147
-0.07958194 -2.212629e-30 -1.3851293e-30 1.2875765e-21 0.014960566 -2.7461624e-09 -0.09159183 1.0345655e-09
-0.032836687 -7.6578976e-31 -0.08865382 -0.081115775 -0.09245395 1.5631838e-30 4.1448025e-26 4.3495233e-31
4.1122535e-12 -0.06902067 0.03432543 -0.04002097 0.035062112 0.0123246 0.021925535 0.082912065
0.08067037 0.00778042 -9.169934e-12 0.07325854 -0.0827052 0.0041063074 0.038171966 0.027130675
3.7943937e-07 -0.09030322 -1.6992854e-30 0.041259613 0.021844348 -2.739174e-15 0.07232872 0.06422479
0.05319486 9.303446e-09 0.023766808 0.061817415 -1.8311422e-30 4.2043323e-31 0.085391074 -0.0016497715
0.019554239 -0.086068325 2.3501154e-20 2.6151824e-23 -0.04537438 -0.050289784 0.028597774 0.021605117
00000000: 2fc8 06bc f9c5 21bc 0e56 5a3a 364e 68bc
00000010: 544d dab9 15ce 963c b978 510d d3ce 83bc
00000020: a817 b7ba b561 41b5 2221 088d f377 a58d
00000030: f65b adbb 047a 2d8e 760b 34bc 400d ee34
00000040: 23da 1cbc 9b7d 4a34 006b 103b 94fc 1bbd
00000050: f227 ce3c aadd 0130 23af 9528 37d5 160e
00000060: a9f8 a1ab c31d f33b a3e2 c2b9 3474 1f3c
00000070: 4d8c 92bc c0ea 06bc 2275 22bb 432e 01bd
00000080: e1c9 0e3b 2899 a037 f322 8223 b595 27bd
00000090: 5d63 5bbc 0db3 d73c 0b2d 263c 3921 4cbc
000000a0: 1b34 af8d 8f45 113d b193 e133 18a4 cbbc
000000b0: 9f42 2dbc 8147 c6ad c74d 61bd 87e9 a7bc
000000c0: 88fa 40bc 66de b419 e45d 2d3b 2469 0fbd
000000d0: c1cd 2fb5 29be 0db3 a7e4 e8bc d124 9f3c
000000e0: 9189 193d 3cbe 403d 8dee 6c0c 1469 04ac
000000f0: 9598 3abc 311b 933c 73d2 2e3b 1812 fcbb
00000100: 6880 00be c4fe 35bd 5b32 c9bd a3d9 f9bd
00000110: 1b7d e9bd eedd 133e 8cba ae32 819a 08be
00000120: 7b92 313e 9c54 c98b ecf9 e330 68c5 de0c
00000130: 0dff e8bd 08a2 6017 0b4a 3e3e 3f46 2329
00000140: 68df 34bd 2a3e 488d 8b14 093e 5ce0 3f3e
00000150: 6016 213e 77f9 bcaf d815 2cab e468 9810
00000160: 7bc7 83a6 2be1 173e 5d2f dfbd b6e5 f6bd
00000170: 20a3 f3bd b38b ecbd 7b70 9abd 16b8 09be
00000180: f5f6 34be da15 c6bd ee79 b330 72d2 19be
00000190: d0a1 2b3e 976f d6bd b15a dbbd 90eb d1bd
000001a0: 7b1c 2e2c 73fc 193e 4f60 33a4 13ac d1bd
000001b0: 0827 cabd 98bf 22ae 4ceb 13be 3e88 10be
000001c0: 3eda 13be 1a1f 9da7 f2e9 eabd f80d 0abe
000001d0: 5b81 4611 7132 318e 353b 3abe d609 14be
000001e0: bf8e ddbd 024c 123e fa7c 8825 42ce 808c
000001f0: d881 303e a9bf 293e eded bdbd 3e37 d8bd
00000200: 923e dfbd 36bf d5bd f7ea c5bd 38fb ffbd
00000210: 5916 cfbd a5b6 123e 4c44 398e 4ef4 d9bd
00000220: e4cb 263e 8cc2 c18c d701 c08b fe79 bc9c
00000230: 2e13 a9bd 6386 6d8e 3391 2f3e 7e11 4532
00000240: 13cf afbd 953d d80d c8b5 183e 0fbb 2b3e
00000250: 84e5 163e 3d9b 250e f0e1 2cab 955d 638e
00000260: 0453 a82a 9b4a 173e 95ba dabd 4e5a 85bd
00000270: 9fec d3bd 4dbb e6bd d9f4 c6bd c720 b2bd
00000280: 676e 23be 834f 97bd adee 28a0 ef03 22be
00000290: 48e6 323e c9e2 8dbd 25bf c0bd cd3d 06bd
000002a0: c422 4b0d 7ab9 123e 6735 4da5 d7c8 ddbd
000002b0: 1d93 b0bd d60f 518e 8dfb a5bd 0721 0cbe
000002c0: a2f0 dabd b88f ac0d 9a94 dbbd 5656 e7bd
000002d0: a640 4435 72b7 6fb3 0948 29be 5c3f 9abd
000002e0: 6682 a2bd f2dc bb3d 64fd a032 4257 e22f
000002f0: cd7b 173e 16a1 fb3d c02f c8bd a07c c2bd
00000300: 9cff 3f3c a996 783c 4d36 83bb 0ced 803c
00000310: 8962 09bd d306 b3bd a1dc 0733 21bc 5c3b
00000320: dbfb a2bd 8282 338e 05c0 e08d b492 c21c
00000330: 291d 753c 00b7 3cb1 7f94 bbbd 8a30 8e30
00000340: c37f 06bd 5383 788d 2290 b5bd 0720 a6bd
00000350: 7f58 bdbd 1da4 fd0d 9d3d 4d15 6d26 0d0d
00000360: e3af 902c b65a 8dbd d298 0c3d 07ed 23bd
00000370: 4a9d 0f3d 1eed 493c 2e9d b33c cdcd a93d
00000380: 8236 a53d e5f2 fe3b b651 21ad 9308 963d
00000390: 5861 a9bd 348e 863b 355a 1c3d 2641 de3c
000003a0: c0b5 cb34 e5f0 b8bd c7dc 098e d7ff 283d
000003b0: ebf2 b23c d760 45a7 1421 943d 4988 833d
000003c0: dbe2 593d fdd4 1f32 9cb2 c23c 4234 7d3d
000003d0: 568f 148e 3a70 080d 84e1 ae3d 253d d8ba
000003e0: 3630 a03c 9744 b0bd 4ef6 dd1e c8ec fc19
000003f0: 7cda 39bd a9fc 4dbd e145 ea3c 37fd b03c
