KGCN/kgcn_agg_weights_0_64_news_2.npy (npy, 16512 bytes, 1 tensors)

array f4 [64, 64]
000000 91 b0 2f 3d aa 31 bd 3c dc 71 02 3e 07 e2 14 be
       0.042892996 0.02309497 0.12738746 -0.14539348
000010 8e d9 b5 bd 6f 93 4c 3d 83 ff b8 3d 41 c2 13 3e
       -0.08879386 0.04994529 0.0903311 0.1442957
000020 2a 23 37 3e 0d 9d cd 3d 75 e4 08 3e 84 c1 56 3d
       0.17884508 0.10039721 0.133684 0.052430645
000030 c0 86 71 3c 74 52 c5 bb b1 13 36 be 1d a9 74 3d
       0.0147416 -0.006021792 -0.17780949 0.05973159
000040 22 8e 1c be 41 97 9a bc 46 ec a4 bd a3 42 43 3e
       -0.15288594 -0.018870952 -0.08052878 0.19068389
000050 88 3f 31 3e 0a 08 71 bd 66 6f ca 3c 56 7b 31 3e
       0.17309391 -0.058845557 0.024711322 0.17332205
000060 e6 ba 60 3d 4a d3 05 3b 66 8b 86 bb 25 a7 23 be
       0.05486574 0.0020420128 -0.004105973 -0.1598173
000070 59 45 24 be 58 2b 78 3a 52 85 13 3e a4 1d 64 bd
       -0.16042079 0.0009466908 0.14406326 -0.05569233
000080 d7 2c 37 bc a7 aa f1 b5 db ea 13 bc 57 ef fe 3a
       -0.011180124 -1.8005566e-06 -0.009028162 0.0019449991
000090 9f 64 2c 3e 6e 97 ac bd 1a 24 be bd b2 7e 1b bc
       0.16835259 -0.084273204 -0.092842296 -0.009490656
0000a0 11 9c 0a be dd 41 fc 3d 0f ab 0f 3e da a4 a9 bd
       -0.13536097 0.1231725 0.14030097 -0.08283396
0000b0 a3 7c 41 3d 6f 8c 57 3d ce 57 be bc 5b d4 0e be
       0.047238003 0.052624162 -0.023235228 -0.13948195
0000c0 77 f4 ee bc 0c 04 2b be 75 32 20 3e 37 4b 03 37
       -0.029169304 -0.16700763 0.15644248 7.825721e-06
0000d0 45 ad 15 3e 09 37 cb bc 04 9e 51 3c 37 08 f9 bb
       0.14616878 -0.024806516 0.0127940215 -0.0075998562
0000e0 0a e3 1b 3c e0 5c 39 bb bf 4a b1 bd a4 ac 3b 3d
       0.00951458 -0.0028284118 -0.08656835 0.04581894
0000f0 0c 65 21 be b3 70 45 3e a5 d5 08 be bd 3e 11 3d
       -0.15761203 0.19281273 -0.13362749 0.035460223
000100 00 25 94 3d ca 86 c7 bd 72 88 b5 bd 18 45 bf 3d
       0.0723362 -0.09742506 -0.088639155 0.093393505
000110 df a9 c8 3d dd a8 1b bd 5f fc 01 be f1 bd dc bd
       0.09798025 -0.038002837 -0.12693928 -0.10778416
000120 78 35 40 bd 1d d8 33 be 53 58 1c 3e 08 e6 a7 3d
       -0.04692599 -0.1756291 0.15268068 0.08198172
000130 a1 fb 20 b8 c4 76 22 3e d2 c3 87 bd 88 d6 41 3e
       -3.838132e-05 0.15865618 -0.06629147 0.18929493
000140 cc 7b 5d bd 9b 04 05 bd fc 0e 5b bc cc d5 38 3d
       -0.05407314 -0.032475095 -0.013370272 0.045125768
000150 83 fe a7 bd f5 09 37 be 38 e9 c9 bd ca 7a f7 bd
       -0.08202841 -0.17874892 -0.09858936 -0.12083967
000160 fd 7b ba 3d f0 f7 32 bc fc 58 a9 3d 33 d0 b7 3d
       0.0910568 -0.010923371 0.082689255 0.08975258
000170 2b 67 33 be 2c 33 dd b7 12 53 a3 3b c9 26 37 3e
       -0.17519824 -2.6369082e-05 0.004984268 0.17885889
000180 1f 82 16 3e a8 51 2e 3c 06 bb 09 be f3 cc 4a bd
       0.14698075 0.010639586 -0.1345025 -0.04951186
000190 39 1c c9 3d f7 d2 36 3e 0a d2 73 3d 20 c8 c1 bd
       0.09819836 0.17853914 0.05952648 -0.09461999
0001a0 95 75 18 3e 3e d7 3b be 6f a2 bf bd 52 7f a2 bd
       0.14888604 -0.18343827 -0.093571536 -0.07934441
0001b0 d6 d6 d0 bc 38 53 d2 3d 02 39 43 be 9c c2 90 3d
       -0.025493067 0.10269779 -0.19064716 0.07068369
0001c0 a1 ed d7 3d 08 2c 5a 3a 93 51 11 be 0a d9 84 bc
       0.10543371 0.0008322601 -0.14191274 -0.016216774
0001d0 b1 14 00 be 8f 81 94 3c a2 61 44 3e 30 bd ce 3d
       -0.12507893 0.018128185 0.19177869 0.100946784
0001e0 7c 4d 29 be ab a7 42 3e 42 d3 c5 3d bd 44 73 bd
       -0.16533464 0.19009273 0.09659435 -0.059391726
0001f0 ca a8 0c be e0 66 29 be a3 80 0d 3e 8f 92 fd 3d
       -0.13736263 -0.1654315 0.13818602 0.123814695
000200 81 8f dd 3c e8 39 d3 3d 8b d3 7c 3d d7 7e e8 bd
       0.027045967 0.10313779 0.06172518 -0.11352318
000210 a0 aa d3 bd 3f 83 06 be 2a 86 3e be 91 32 42 be
       -0.103352785 -0.13136004 -0.18605867 -0.18964602
000220 5f 20 2b 3e 42 d4 f3 bd e0 e4 7f bd b2 c6 a8 3c
       0.16711567 -0.11905719 -0.06247413 0.020602558
000230 ca bf 45 3d 29 ab 97 bd 34 43 92 bd ed ca 9d bd
       0.048278607 -0.07405693 -0.07141724 -0.07704721
000240 95 7f 19 be f8 eb 88 38 5c 05 bd 3c e7 33 1f 3d
       -0.14990075 6.528938e-05 0.023073845 0.038867857
000250 ad 6d 2b 3e c4 a1 01 be 5d 31 6f bc 3d d0 11 3d
       0.16741057 -0.12659365 -0.0145991715 0.035598982
000260 a4 fd d4 bd 45 bc 24 3e a7 45 19 3e 74 d7 e1 3d
       -0.103999406 0.16087444 0.14967977 0.110274225
000270 78 d9 e1 bd aa 35 b5 bd 87 d2 17 be 43 c0 ae bd
       -0.11027807 -0.08848126 -0.14826404 -0.08532765
000280 67 95 b5 3c d7 13 3a be 1b 3b cb bd fd 41 e1 3d
       0.022165967 -0.18171631 -0.09923383 0.109989144
000290 30 e3 db 3b da 73 a3 bd aa 01 e4 bd 3a ea f3 38
       0.0067104325 -0.07981081 -0.1113313 0.00011630771
0002a0 d0 74 8d 3d d9 a6 03 3e e1 05 80 bd cf f7 15 bd
       0.06907046 0.12856616 -0.06251121 -0.03661328
0002b0 ec 64 34 3e fa 08 cb bd e7 44 03 3e 7a f0 0d 3d
       0.17616624 -0.099138215 0.12819253 0.034653164
0002c0 f7 be d0 3c 53 f9 c2 bd d5 bd ba 3d a3 64 00 be
       0.025481684 -0.09520211 0.09118239 -0.1253839
0002d0 70 cd a1 bd 6e ee 72 b8 9b b3 a2 bd 8f f3 0c be
       -0.07900512 -5.791935e-05 -0.07944413 -0.13764785
0002e0 73 76 aa bc fd eb 6a 3d 74 57 0f be d0 5a b3 b8
       -0.020808434 0.057353962 -0.13998204 -8.5523e-05
0002f0 23 45 1a 3c 64 ab 8a bc 2e e6 12 be 23 2b 71 3d
       0.009415898 -0.016927429 -0.14345619 0.05887903
000300 13 f8 b5 3d 69 7e f2 3d 88 d3 1b be cc 34 1c 3e
       0.08885207 0.11840517 -0.15217412 0.15254515
000310 cd ef 0d 3e 30 7c 38 bd 03 32 d1 3d ca 60 a3 3a
       0.13861008 -0.04504031 0.10214617 0.0012464758
000320 78 c9 8b 3d 33 fa 1a be bb 11 7b 3d 95 2f 2b 3e
       0.068255365 -0.15134506 0.061296206 0.1671737
000330 fc 2f 15 be aa d3 5f bd 86 7b 52 bd 09 09 28 3e
       -0.14569086 -0.054645218 -0.051387332 0.16409697
000340 9d 39 36 3c 47 6c 29 be a6 90 fc bd 67 43 a8 bd
       0.0111221345 -0.16545211 -0.12332277 -0.08215981
000350 c1 0b ab b8 b3 e7 29 be e4 4e 50 bd 56 f0 37 3e
       -8.156105e-05 -0.16592292 -0.050856486 0.17962775
000360 b8 ad 28 3e 62 6a 6d 39 ff 22 0b 3e 10 18 4d b8
       0.16472518 0.00022641712 0.13587569 -4.889822e-05
000370 3b df f5 3d e9 10 c8 bc 50 46 22 bd df 32 38 3c
       0.120054685 -0.024422126 -0.039617836 0.011242597
000380 e7 84 25 3e 20 9c fd 3d cd cd 03 bd 63 45 50 bd
       0.1616398 0.12383294 -0.03217869 -0.050847422
000390 01 93 b8 39 93 ba 18 bd c0 98 82 bd 5a 2d 8a 3c
       0.0003520474 -0.037287306 -0.06376791 0.016867328
0003a0 4c 7f ea 3d e4 50 20 3e 52 56 cc 38 63 01 24 3a
       0.11450061 0.15655857 9.7435564e-05 0.000625631
0003b0 81 49 a4 bd 93 fc e4 3d a3 44 17 3e a0 f6 61 3d
       -0.08021832 0.11180987 0.14772277 0.05516684
0003c0 06 4a aa bc e7 91 30 3e 1b 07 a4 3d 32 bb 79 3d
       -0.02078725 0.17243157 0.08009168 0.06096954
0003d0 01 6f 3e bd 94 cc 1b be f3 de 38 bd 41 5f 43 3e
       -0.04649258 -0.15214759 -0.045134496 0.19079305
0003e0 57 db 92 bd 45 4f c9 bd d0 b8 68 3c bb ed 83 3d
       -0.07170742 -0.098295726 0.014204219 0.06441828
0003f0 17 31 11 3e 03 c9 2c bd 84 c4 3c be 6c aa 20 be
       0.14178883 -0.042183887 -0.1843434 -0.15690011
