KGCN/kgcn_agg_weights_1_64_books_2.npy (npy, 16512 bytes, 1 tensors)

array f4 [64, 64]
0	0x3de86356	0.11347072
1	0x3e3991b5	0.18121989
2	0x3d71128d	0.058855582
3	0x3e16a0d7	0.14709793
4	0x3e1bcce0	0.15214872
5	0x3a7371ab	0.0009286652
6	0x3dee3654	0.11631456
7	0x3e1ba7bf	0.15200709
8	0x3da1b4fe	0.0789585
9	0xbd3209e1	-0.043466453
10	0xbb98bb16	-0.0046609743
11	0x3d24c811	0.04022986
12	0x36596240	3.2392709e-06
13	0xb933b6dc	-0.0001713889
14	0x3e0572fc	0.13032144
15	0xac93a31c	-4.1961e-12
16	0x9f4b33f2	-4.302989e-20
17	0x1cb797d8	1.2149175e-21
18	0xbc6e41d7	-0.014542065
19	0x3d2f1a4a	0.04274968
20	0x3e1618be	0.14657876
21	0x3d6f0e73	0.05836339
22	0x3d62b8c9	0.055352006
23	0xbcaa8c22	-0.020818774
24	0x3d507285	0.050890464
25	0xbc68749b	-0.014187957
26	0x3e06ebcd	0.13175888
27	0x3e1dfe7f	0.15429114
28	0xb7653f48	-1.36641975e-05
29	0xaabd6c75	-3.3648401e-13
30	0x3e033a3e	0.12815186
31	0x2dee6d69	2.7106055e-11
32	0x3e0535e9	0.13008846
33	0xb8cc873e	-9.752669e-05
34	0x3d42006c	0.047363684
35	0x3da69e27	0.08135634
36	0xbc4d6654	-0.012536604
37	0xb3269075	-3.878127e-08
38	0xb0101b33	-5.242555e-10
39	0xb91f58e6	-0.00015196539
40	0xb52ebea6	-6.509748e-07
41	0xbc470dab	-0.012149255
42	0x3e1e5fdd	0.15466256
43	0xb032b974	-6.501957e-10
44	0x3e017556	0.12642416
45	0xbc885b2a	-0.016645033
46	0xbd16aa2d	-0.036783386
47	0xb7709560	-1.4339894e-05
48	0x3e2268af	0.15860246
49	0xbc657882	-0.014005782
50	0x3c2b1cb3	0.010443854
51	0xb85f0f4b	-5.3181586e-05
52	0x3dc2edf8	0.09518045
53	0xbbe7c364	-0.007072853
54	0xba9ac354	-0.001180748
55	0x3de488f7	0.111589365
56	0x3debcf01	0.11514092
57	0x3d2d3970	0.042291105
58	0x8e2821b1	-2.072382e-30
59	0xbd7b4c2f	-0.06135195
60	0xbd92777d	-0.07151697
61	0x3d43c2b8	0.04779312
62	0x3aab9635	0.001309103
63	0x3a6fad04	0.0009142908
64	0xbe12d4c4	-0.14338976
65	0xbd495c82	-0.049160488
66	0xbd30bdc8	-0.04314974
67	0xbce9893e	-0.028507825
68	0xbdf859c0	-0.121264935
69	0x3483f1c1	2.457655e-07
70	0xbdc8efb1	-0.098113425
71	0xbd91b7d7	-0.07115143
72	0xbd94114d	-0.07229862
73	0x3dd01a62	0.10161282
74	0x3e4f2dc0	0.20232296
75	0xbd8f21be	-0.06988858
76	0x3dff4124	0.124635965
77	0xb20ea87c	-8.303797e-09
78	0xbda884a2	-0.08228423
79	0x35cb7955	1.5159991e-06
80	0xb66c5715	-3.5217429e-06
81	0xb5210e9a	-5.999842e-07
82	0x3e483872	0.19552782
83	0x3e3fb0e3	0.1871982
84	0xbdf981d7	-0.12182968
85	0xbdb64232	-0.088993445
86	0x3e1f3e99	0.15551223
87	0x3e5ad442	0.21370032
88	0xbdff823e	-0.124760136
89	0x3e3ea4f2	0.18617609
90	0xbd87f5fc	-0.06638715
91	0xbd9a7170	-0.07541168
92	0x3b5366cc	0.0032257317
93	0xbafe6c92	-0.0019411019
94	0xbd189a89	-0.03725675
95	0xb18cd97b	-4.099261e-09
96	0xbd810dde	-0.06301473
97	0xb95607a8	-0.00020411483
98	0x3e62f5c0	0.22164059
99	0x3d480bd6	0.048839413
100	0x3e72dabc	0.23716253
101	0xb8c298c5	-9.2790964e-05
102	0xba351ec8	-0.0006909189
103	0xba00728b	-0.0004899881
104	0x8da760f9	-1.0315515e-30
105	0x3e11d621	0.1424184
106	0xbe0c0ec4	-0.13677508
107	0x37ed634e	2.8298844e-05
108	0xbd4e1d6c	-0.050321028
109	0x3e2d07c8	0.168975
110	0x3e5b7247	0.21430312
111	0xbb35f3c2	-0.00277637
112	0xbdd2d8a0	-0.10295224
113	0x3e1e9b35	0.15488894
114	0x3cb7bf16	0.022429984
115	0xb31833a6	-3.5437232e-08
116	0xbd327d9a	-0.043576814
117	0x3dd2232f	0.10260617
118	0x30680f54	8.442289e-10
119	0xbd3e4900	-0.046456337
120	0xbd54470a	-0.05182556
121	0xbcad9d0f	-0.021193055
122	0x3b5f9ef2	0.0034121838
123	0x3e5907fe	0.21194455
124	0x3d21e837	0.039528098
125	0xbb9619cd	-0.0045807124
126	0xb8b67257	-8.699734e-05
127	0x3dfce2f9	0.12347979
128	0x3d43f4a3	0.047840726
129	0x3df98a46	0.12184577
130	0x3dd3027f	0.103032105
131	0x3de5c34e	0.11218892
132	0x3ccc0ac4	0.024907477
133	0x8dbf6ac2	-1.1796985e-30
134	0x3ddc4d38	0.10756916
135	0x3e0574b0	0.13032794
136	0x3e061656	0.13094458
137	0x3cbd8272	0.02313349
138	0x3cc42672	0.023944113
139	0x3e0a4564	0.13503033
140	0xbc954e89	-0.018225925
141	0xb6f7d623	-7.3861024e-06
142	0x3dad77fe	0.08470152
143	0x2c8ead3b	4.055115e-12
144	0x2e6f5356	5.4416326e-11
145	0xba157c0b	-0.0005702383
146	0x3db2a4de	0.08722852
147	0x3cc9369f	0.024562178
148	0x3e25d522	0.16194585
149	0x3d5d8c69	0.054088984
150	0x3c7cf33e	0.015438853
151	0x3cb8399a	0.022488404
152	0x3d87a8c8	0.06623989
153	0x3cd942cb	0.026521107
154	0x3de7ab33	0.113119505
155	0x3e10123f	0.1406946
156	0xa5b39d5a	-3.1158176e-16
157	0xb9d65681	-0.0004088171
158	0x3df9d05c	0.121979445
159	0x33ef5bc3	1.1145996e-07
160	0x3df3c1c3	0.119021915
161	0x1bca9e0e	3.3520237e-22
162	0xbd4aecbc	-0.049542174
163	0x3de1e128	0.11029273
164	0x3dbf5734	0.093428046
165	0x373b0e5f	1.1149415e-05
166	0xb6966999	-4.4826415e-06
167	0x2d9374a2	1.676376e-11
168	0x8d089ff4	-4.210077e-31
169	0x3d069240	0.03285432
170	0x3e0c49e6	0.13700065
171	0xb4ce5e55	-3.8439126e-07
172	0x3e0a8658	0.1352781
173	0xbcd0e9af	-0.025502054
174	0x3d604983	0.054757606
175	0xbaaaef06	-0.0013041205
176	0x3de6a627	0.1126216
177	0xbc50b7c1	-0.012739123
178	0x3d16853f	0.036748167
179	0xb98146ba	-0.00024657493
180	0x3e0085c8	0.12551033
181	0x3cda7b44	0.026670106
182	0x37972ec0	1.8022372e-05
183	0x3dfb6b32	0.12276305
184	0x3dd7a1ed	0.10528932
185	0x3e0f4663	0.13991694
186	0x371be2f8	9.291565e-06
187	0x3c3a14bc	0.0113574825
188	0xbd96b15f	-0.073580496
189	0x3d9c06bc	0.07618472
190	0xb78c76b2	-1.6744572e-05
191	0xbc0a2b2b	-0.008433144
192	0xbd85df70	-0.06536758
193	0x3c95114d	0.018196726
194	0xbc10527d	-0.008808729
195	0x3d3f5474	0.0467114
196	0xbdb9f107	-0.090791754
197	0x0e4a54e3	2.4939294e-30
198	0x3bbabf63	0.0056990846
199	0x3c9af7bc	0.018916957
200	0x3aec35a1	0.0018021354
201	0x3e26b052	0.16278198
202	0x3dfbf372	0.12302293
203	0x3c8bf0a4	0.01708252
204	0x3df6281f	0.12019371
205	0xb8f05b9d	-0.00011461156
206	0x3bb3ecea	0.005490889
207	0xa695b9ff	-1.0389366e-15
208	0x35361841	6.783558e-07
209	0xb8cdd1a1	-9.814208e-05
210	0x3d451878	0.04811904
211	0x3e20edcf	0.15715717
212	0xbb8db80a	-0.0043249177
213	0xbda9e1e4	-0.08295038
214	0x3e3c0dc5	0.18364628
215	0x3d6ab5db	0.057302337
216	0xbdc7ce03	-0.097560905
217	0x3e311fe6	0.17297325
218	0x3cb9cec0	0.022681594
219	0x3cb2df0e	0.021834876
220	0xb3c75dc2	-9.283714e-08
221	0xb3ec8ee4	-1.1015598e-07
222	0x3bd6f13b	0.0065595186
223	0xb5a17c25	-1.2031566e-06
224	0x3d798ef1	0.060927335
225	0xa4084fd8	-2.955793e-17
226	0x3dfa0b47	0.12209182
227	0xbd4a42a5	-0.049379963
228	0x3e36c7ad	0.17849608
229	0x39f66cca	0.0004700183
230	0x210a5e2b	4.688085e-19
231	0x376778f9	1.3796839e-05
232	0xb8cdb343	-9.808552e-05
233	0x3e0131a0	0.12616587
234	0x3c2eb70f	0.010663762
235	0x3b0be9ab	0.0021348994
236	0xbc746c8e	-0.01491846
237	0x3e227763	0.15865855
238	0x3dffdd0b	0.124933325
239	0x3b1ee95a	0.0024247975
240	0xbbf45fcf	-0.0074577103
241	0x3dfeecb4	0.12447491
242	0x3cb08d41	0.02155173
243	0xb3912865	-6.7594364e-08
244	0x3d4d80f7	0.05017182
245	0x3df8bde2	0.12145592
246	0xb998c6bc	-0.00029139768
247	0x3cca8fb4	0.024726726
248	0x3ca3626b	0.01994439
249	0xbc0a0090	-0.008422986
250	0x34e5fdbb	4.2839187e-07
251	0x3e09855b	0.13429777
252	0x3d345517	0.04402646
253	0xbc92f9ea	-0.017941434
254	0x290ae674	3.0842042e-14
255	0x3e237b65	0.1596504
