KGCN/kgcn_agg_weights_1_64_books_2.npy (npy, 16512 bytes, 1 tensors)

array f4 [64, 64]
000000 68 65 d6 29 ec e5 5e 3d 9d 8c 61 bb 44 5c 22 3e
       9.5211e-14 0.05441849 -0.0034416087 0.15855509
000010 4d cf 12 3e 73 93 23 3e a6 b5 18 3e 18 4a 33 3c
       0.14336891 0.15974216 0.14913043 0.010942958
000020 b9 b4 53 3c 44 ca 24 3e bf ed 1e 3e cc 3a 16 3e
       0.012921506 0.16092783 0.1552038 0.14670867
000030 03 3a 2e 3e 74 84 2a 3e 16 c3 d0 3b 32 55 1e 3e
       0.17014317 0.1665209 0.0063709123 0.15462187
000040 3a 95 48 ac b1 08 15 3e a3 24 97 ae 63 a7 7f 23
       -2.8504547e-12 0.14554097 -6.873193e-11 1.3859023e-17
000050 2c a2 23 3e cf a4 23 3e 97 17 0b 3e ae b4 ef 3d
       0.15979832 0.15980838 0.13583218 0.11704384
000060 40 9c 27 3e 22 95 1c 8e 94 48 5d 8d eb ea 32 3d
       0.16368198 -1.930029e-30 -6.8188246e-31 0.043681066
000070 6e e8 04 3e cb d6 9d 3d 53 ce 1e 3e e6 c2 af b3
       0.1297929 0.07706984 0.15508394 -8.184524e-08
000080 ce 4f 18 bb 3a 48 1f 3e c8 0d ca 3d 26 aa 39 3e
       -0.0023240927 0.15554896 0.0986591 0.18131313
000090 19 6a b7 3b 72 eb 78 aa 6c e8 31 3e c1 83 d0 ae
       0.0055973646 -2.2108511e-13 0.17373818 -9.482149e-11
0000a0 b2 0d 05 ae 4a 8a a7 3d 72 af d1 23 69 d7 28 3e
       -3.0252863e-11 0.081806734 2.273413e-17 0.16488422
0000b0 db 52 0a 3e 99 99 58 3e 3b 46 2e 3e 47 4a d3 3d
       0.1350817 0.21152343 0.17018978 0.10316902
0000c0 dd da 33 3e cb 4b f9 3b 12 a3 2f 3e 45 e5 e4 ae
       0.17563958 0.007607912 0.1715205 -1.0408966e-10
0000d0 b4 cc 0f bc 04 db 22 3c 17 b8 66 b0 66 6c 09 25
       -0.008776832 0.009939913 -8.393512e-10 1.1919583e-16
0000e0 b2 e0 0d bd 73 da 24 3e c3 d2 1f 3e c3 1d 26 3e
       -0.034638114 0.16098957 0.15607743 0.1622229
0000f0 a8 38 a0 3d 4e ef 25 1a 55 be b2 33 18 55 1e b2
       0.07823306 3.431451e-23 8.323392e-08 -9.2161585e-09
000100 46 84 54 0e e7 c9 b6 3d 20 9f a3 bc 4a 42 0d 3e
       2.6194705e-30 0.089252286 -0.019973338 0.13794819
000110 91 c0 ea 3d e6 9b 26 3e d8 9b e6 3d 4a 4f c4 bb
       0.114625104 0.16270408 0.112601936 -0.0059908973
000120 84 c9 89 bc 98 86 20 3e 46 0b 12 3e 29 47 11 3e
       -0.016819723 0.15676343 0.14262113 0.14187302
000130 8f a9 fc 3d 5a 02 2d 3e 52 ae 5d bc c1 90 19 3e
       0.12337028 0.16895428 -0.013530331 0.14996625
000140 a2 f7 d0 26 24 bc 0c 3e 57 27 82 19 94 8b a2 0d
       1.450002e-15 0.13743645 1.3457574e-23 1.0017623e-30
000150 e9 9d 0d 3e 4e 01 2c 3e e7 6a cf 3d cc 49 05 3e
       0.13829769 0.16797373 0.10127812 0.13016433
000160 a1 6a 17 3e e9 f1 00 0e db 67 fa 31 de 67 b7 bc
       0.1478677 1.5893694e-30 7.2877646e-09 -0.022388395
000170 b8 a2 e2 3d 25 19 ed 3d 47 4c 24 3e ca fb 35 8e
       0.110661924 0.115770616 0.16044722 -2.2431204e-30
000180 89 9b 4b bc 64 2c 13 3e 51 3b ff 3d 9f af f5 3d
       -0.012427219 0.14372402 0.124624856 0.11996388
000190 dd 97 8b bc 05 82 6c b4 5b e8 19 3e 96 cc 7e 31
       -0.017040187 -2.2026514e-07 0.15030043 3.7078158e-09
0001a0 f8 c0 3a 8e 79 76 f6 3d a4 84 42 a7 8d 18 05 3e
       -2.3019181e-30 0.120343156 -2.6994813e-15 0.12997647
0001b0 63 e4 d3 3d fa a4 1f 3e 91 e1 25 3e 12 62 67 3d
       0.10346296 0.15590277 0.16199328 0.05649001
0001c0 48 e9 24 3e 38 20 82 bc 39 54 24 3e 1c 6d bc 8c
       0.16104615 -0.015884504 0.16047753 -2.9031654e-31
0001d0 16 19 9e 3c 90 cb e6 bc 26 17 2c 8e 0d a5 87 b4
       0.019299071 -0.028173238 -2.1211782e-30 -2.52658e-07
0001e0 c8 7e ac bb 65 45 27 3e f6 c7 fa 3d 82 70 05 3e
       -0.005264137 0.16335066 0.12245171 0.130312
0001f0 f5 b4 00 3e 95 3b 78 b3 17 83 ca 8d 4a 8b 04 8e
       0.1256903 -5.779619e-08 -1.248077e-30 -1.6337321e-30
000200 db e7 29 b3 8d f7 8c 3d 97 48 b1 bc d4 21 16 3e
       -3.955925e-08 0.06883154 -0.021641059 0.14661342
000210 da 58 01 3e 46 81 18 3e 50 5e f3 3d c7 15 a5 bc
       0.1263155 0.14893064 0.11883223 -0.020151986
000220 42 40 80 bd 3c 22 17 3e 07 15 1b 3e 90 1d 11 3e
       -0.06262256 0.14759153 0.1514474 0.14171433
000230 d5 14 07 3e 8f f9 26 3e 3c a6 13 bc 1e db 13 3e
       0.1319154 0.16306137 -0.009011801 0.14439055
000240 fe 1e e8 23 d7 a2 f5 3d c7 f3 37 0e f6 48 fe 0d
       2.5166616e-17 0.1199395 2.2673866e-30 1.5671523e-30
000250 ae 63 16 3e 22 a4 16 3e 4d a0 f3 3d d7 36 13 3e
       0.14686462 0.14711049 0.11895809 0.14376388
000260 59 52 11 3e 23 08 2a 0d 1d 14 fb b1 3a 06 35 3d
       0.1419157 5.239509e-31 -7.307348e-09 0.04419539
000270 0f 7e f2 3d c4 db e7 3d 69 34 12 3e e0 31 fc 8d
       0.1184045 0.11321214 0.14277805 -1.5542706e-30
000280 f3 40 67 bd ff 07 1e 3e 5c a5 17 3e eb 08 13 3e
       -0.056458425 0.15432738 0.14809173 0.1435887
000290 09 d6 ed bc 0c a0 14 0d 64 aa 34 3e 3f 9f b1 b3
       -0.029032724 4.579867e-31 0.17643124 -8.2711715e-08
0002a0 f6 2e 0d 34 fd 27 21 3e 08 7b e4 ab 4e 49 14 3e
       1.3148733e-07 0.1573791 -1.6234522e-12 0.14481089
0002b0 42 34 f0 3d 39 c0 4a 3e 5e 06 1e 3e d6 a2 26 3e
       0.117287174 0.1979989 0.15432116 0.16273054
0002c0 0e 4a 1b 3e 17 4e 36 bd 81 3e 13 3e 2a 31 19 8e
       0.15164968 -0.044508066 0.14379312 -1.8882378e-30
0002d0 27 12 05 bc c5 9f f2 bb 8f ec 6c 0c 9a 26 6a b5
       -0.008122004 -0.0074043 1.8251965e-31 -8.7227966e-07
0002e0 fa 33 9a bc 39 b2 d8 3d af 8a c5 3d fd 32 10 3e
       -0.018823612 0.10580868 0.096455924 0.1408195
0002f0 74 8d a8 3d fc 1b 94 8d 87 ae 81 0d aa ca 02 0e
       0.08230105 -9.127941e-31 7.992255e-31 1.6121316e-30
000300 a0 dd 89 9a 18 6a 76 3d cf 09 d5 bc cc b4 1e 3e
       -5.7019926e-23 0.060159773 -0.026005654 0.15498656
000310 49 40 0c 3e c7 b0 3b 3e 9b ef 20 3e 41 82 4f bd
       0.13696398 0.18329154 0.15716402 -0.05066133
000320 fe 09 20 3b 82 f9 30 3e fb 70 27 3e 8c 55 25 3e
       0.0024420018 0.1728268 0.16351692 0.16145915
000330 e0 db 13 3e 26 0d 43 3e fc 57 ed 3c f3 1d 31 3e
       0.14439344 0.19047984 0.028972618 0.17296581
000340 33 8c 0a 35 d2 7e 1a 3e df 4d bd b4 97 b9 10 a1
       5.161302e-07 0.1508744 -3.5260652e-07 -4.9034724e-19
000350 86 0e de 3d 28 18 3e 3e d2 ee 17 3e 50 c9 1a 3e
       0.10842614 0.18563902 0.14837196 0.15115857
000360 5a f1 32 3e 03 45 5a 28 16 51 2e 31 a6 6e c3 bc
       0.17474881 1.21163955e-14 2.5366425e-09 -0.023856472
000370 bf cf 0e 3e e2 2b d8 3d 42 75 eb 3d 35 57 66 23
       0.13946436 0.10555245 0.114969745 1.2486792e-17
000380 c1 58 8d bc 2f 13 3a 3e 1b f1 45 3e 7d 69 2a 3e
       -0.017254235 0.1817138 0.19330256 0.16641803
000390 fe 6a 26 bc 17 04 26 8e 8f 7d 34 3e 3f 55 b2 8e
       -0.010157345 -2.0463049e-30 0.17626022 -4.3962477e-30
0003a0 53 39 54 b1 fd 06 35 3e ea 98 8e b0 16 66 a1 3d
       -3.0882645e-09 0.17678447 -1.0375321e-09 0.078807995
0003b0 6b 40 04 3e ec bc 50 3e ee aa 47 3e a5 94 17 3e
       0.12915199 0.20384568 0.19498798 0.14802797
0003c0 b0 3e 33 3e fd 5a b3 bc 59 de 45 3e 90 e5 ae 2a
       0.17504382 -0.021893973 0.193231 3.10679e-13
0003d0 4b 31 64 bc d7 6f b4 bc 2a d6 85 8b 79 b0 06 a9
       -0.013927768 -0.022025986 -5.1551975e-32 -2.9907043e-14
0003e0 f1 c3 90 bc 1a 37 4b 3e 30 ec 2c 3e 0e 7c 1b 3e
       -0.017671557 0.19845238 0.16886973 0.15184042
0003f0 42 1e 1f 3e 38 0e 04 31 1f 92 ad 8d e2 75 43 b5
       0.15538886 1.921661e-09 -1.0697126e-30 -7.2814703e-07
