KGCN/kgcn_agg_weights_0_64_books_2.npy (npy, 16512 bytes, 1 tensors)

array f4 [64, 64]
-0.037708685 -0.13722672 0.1364613 -0.12597285 -0.005556907 0.079655156 0.007234603 0.038055077
-0.0013831775 -0.002350845 0.021344958 -0.0005096488 -0.04463439 -0.022831922 -0.06155646 0.14564483
-0.069797836 -0.023946052 -0.12364949 0.054820046 -0.13377799 0.018744158 -0.06518579 -0.09690443
-0.089849405 -0.0012397395 -0.0050320667 0.05720062 0.008605623 -0.026920551 -0.13715172 -0.004423025
-0.070948645 -0.11459808 -0.10773202 -0.003553807 -0.056658395 0.08660123 0.0001325031 0.00060091214
-0.0009583789 0.1432546 -0.07249326 0.07712645 0.11892431 0.14760245 -0.030009788 0.13159819
0.053300492 0.09240295 0.00031825842 -0.12500839 0.074687414 -0.014171933 -0.01838263 -0.026477983
-0.0043909615 -0.018372733 0.119753905 -0.14416622 -0.052873865 -0.059573907 0.093940325 -0.121774174
0.12321435 0.014004057 0.116937086 0.023266068 0.019318508 -0.0151928095 -0.064149514 -0.00771563
-0.060652174 0.03180281 0.01428177 -0.043372694 0.006070288 0.025300127 -0.014791281 0.09050159
-0.031317845 -0.02467099 -0.000281473 0.081527 -0.13286406 -0.026184818 0.0011704648 -0.00515532
0.017953167 0.021932222 0.04443181 -0.06951006 -0.025865478 -0.0013335607 0.119032435 -0.03403458
-0.11019372 -0.08615165 0.026424883 -0.07679537 -0.054905 -0.04908493 0.09707906 0.0003053575
0.02100061 0.10491113 -0.12650526 0.08986391 -0.124004215 -0.01343402 -0.070892334 0.07655893
0.04344498 0.071856774 -0.0040278956 0.00035311823 0.0018233655 0.07554448 -0.053448945 -0.13779226
-0.026330456 -0.15242368 0.076523505 -0.1051252 -0.05521436 0.027965358 -0.124387845 -0.007295651
0.0007800086 0.05231365 0.14358212 -0.0016524584 -0.025587857 -0.0027987268 -0.004493357 -0.14467707
-0.040692877 0.11568052 0.13780546 -0.05136772 -0.075764954 0.00068266975 0.1217808 0.15545289
0.06166626 -0.04691495 0.02820993 -0.009069124 -0.0014863848 -0.13102517 -0.0023026476 0.07744614
-0.034177948 0.00014743867 -0.0026233708 -0.14010383 0.13406286 0.035074193 0.09771123 0.0708345
0.004118367 0.009447984 0.14164253 0.044305332 0.10380198 -0.013558876 -0.01711671 0.0009873793
-0.13025303 -0.1144525 0.11909 0.048086293 -0.14269884 -0.05448722 -0.15156622 -0.007149078
-0.02273945 0.029663803 9.298156e-05 0.007436278 -0.050564706 -0.06969867 -0.0012642471 0.001918969
-0.14597782 -0.06519706 -0.03590534 -0.039495844 -0.06390187 -0.087764196 0.0025121102 -0.09458931
-0.017722772 0.0029333043 -0.08274245 0.002915504 0.09364373 -0.13406457 0.08326805 2.8620994e-05
-0.086351655 0.11840601 0.13904049 0.003950805 0.10487409 -0.00076159986 -0.11106737 -0.12321901
0.15265195 0.017806485 0.0058516893 -0.13837188 0.10562151 0.122334324 0.0699087 -0.12498652
0.08305582 -0.012412428 -0.11808093 0.008134328 0.0038128316 -0.065164514 -0.02426968 -0.0070655737
-0.062230203 0.0024097816 -0.04235494 0.0005255135 0.00074937753 0.033305973 -0.1079231 0.005465115
-0.1096694 -0.031095648 -0.01725346 -0.12083073 -0.0069904653 0.04373468 0.13871993 -0.08952296
-0.032693043 -0.15463153 -0.00700378 -0.11102962 0.0055063968 -0.10840319 0.0018636745 0.07763259
0.11912478 -0.06481077 0.029945128 -0.021251513 -0.018161885 -0.008248272 0.047757894 -0.0351498
00000000: 6c74 1abd 2985 0cbe 83bc 0b3e 07ff 00be
00000010: b716 b6bb 3e22 a33d 4010 ed3b a4df 1b3d
00000020: bc4b b5ba a210 1abb 9fdb ae3c f499 05ba
00000030: 8dd2 36bd 030a bbbc a022 7cbd eb23 153e
00000040: 2bf2 8ebd 832a c4bc f23b fdbd fc8a 603d
00000050: 19fd 08be 598d 993c 2180 85bd d475 c6bd
00000060: f702 b8bd c17e a2ba 09e4 a4bb 334b 6a3d
00000070: 99fe 0c3c 7d88 dcbc 8071 0cbe 06ef 90bb
00000080: 864d 91bd 66b2 eabd 9ba2 dcbd fde6 68bb
00000090: a212 68bd fc5b b13d 88f0 0a39 8886 1d3a
000000a0: b83b 7bba 55b1 123e 5977 94bd 79f4 9d3d
000000b0: 978e f33d 1925 173e 16d7 f5bc adc1 063e
000000c0: 9e51 5a3d c23d bd3d ecdb a639 3302 00be
000000d0: b7f5 983d 6531 68bc 2b97 96bc 5be8 d8bc
000000e0: 0ee2 8fbb 6a82 96bc 8941 f53d 4fa0 13be
000000f0: 4492 58bd c503 74bd c963 c03d bd64 f9bd
00000100: ce57 fc3d 4671 653c b67c ef3d 7b98 be3c
00000110: d941 9e3c 43eb 78bc d260 83bd 65d3 fcbb
00000120: 6a6e 78bd aa43 023d 16fe 693c 91a7 31bd
00000130: 44e9 c63b 3642 cf3c 2157 72bc e658 b93d
00000140: 2447 00bd d11a cabc ab92 93b9 a1f7 a63d
00000150: 840d 08be 8b81 d6bc 486a 993a f5ed a8bb
00000160: 8512 933c 34ab b33c 21fe 353d 4a5b 8ebd
00000170: d7e3 d3bc dfca aeba 47c7 f33d d867 0bbd
00000180: 3fad e1bd 4770 b0bd ff78 d83c e446 9dbd
00000190: 11e4 60bd 480d 49bd 63d1 c63d 6418 a039
000001a0: 7909 ac3c a6db d63d 988a 01be 920a b83d
000001b0: ecf5 fdbd 5d1a 5cbc 0030 91bd eeca 9c3d
000001c0: 5df3 313d a529 933d 70fc 83bb ba22 b939
000001d0: fefd ee3a 10b7 9a3d 48ed 5abd 6a19 0dbe
000001e0: f8b2 d7bc f414 1cbe 5bb8 9c3d e14b d7bd
000001f0: 7428 62bd 9b17 e53c 0ebf febd 5b10 efbb
00000200: 7e79 4c3a d646 563d 3107 133e 4e97 d8ba
00000210: a09d d1bc d86a 37bb 033d 93bb 3a26 14be
00000220: 93ad 26bd e9e9 ec3d e01c 0d3e f566 52bd
00000230: a82a 9bbd 31f5 323a 3668 f93d 0b2f 1f3e
00000240: c395 7c3d e429 40bd 8318 e73c aa96 14bc
00000250: ccd2 c2ba 762b 06be 04e8 16bb 159c 9e3d
00000260: 2dfe 0bbd c499 1a39 dcec 2bbb 6177 0fbe
00000270: c647 093e f5a9 0f3d d31c c83d ae11 913d
00000280: 5ef3 863b b8cb 1a3c bd0a 113e 8279 353d
00000290: 2296 d43d 0c26 5ebc 5838 8cbc f46a 813a
000002a0: 0d61 05be 1366 eabd 75e5 f33d 22f6 443d
000002b0: a51f 12be fe2d 5fbd 2d34 1bbe d042 eabb
000002c0: 1548 babc 8101 f33c 18ff c238 05ac f33b
000002d0: f01c 4fbd 2dbe 8ebd 18b5 a5ba ea85 fb3a
000002e0: 367b 15be 0986 85bd 7a11 13bd 65c6 21bd
000002f0: fcde 82bd b7bd b3bd 37a2 243b 0ab8 c1bd
00000300: 592f 91bc ae3c 403b e074 a9bd 0a12 3f3b
00000310: 49c8 bf3d 3948 09be 7088 aa3d 1e17 f037
00000320: 23d9 b0bd da7e f23d a160 0e3e c175 813b
00000330: 3ac8 d63d 1aa6 47ba 4a77 e3bd 405a fcbd
00000340: cb50 1c3e e8de 913c 87bf bf3b 5cb1 0dbe
00000350: 1750 d83d 6b8a fa3d 4b2c 8f3d eff8 ffbd
00000360: 2b19 aa3d 7f5d 4bbc 6ad4 f1bd d845 053c
00000370: b3e0 793b f974 85bd 35d1 c6bc 5486 e7bb
00000380: 19e5 7ebd 6ded 1d3b 607c 2dbd 9dc2 093a
00000390: e071 443a d86b 083d c906 ddbd b514 b33b
000003a0: 5a9a e0bd 4dbc febc 2157 8dbc 1a76 f7bd
000003b0: 4610 e5bb 2323 333d 990c 0e3e d057 b7bd
000003c0: 24e9 05bd ba57 1ebe f77f e5bb 7f63 e3bd
000003d0: 016f b43b 7e02 debd 8a46 f43a d6fd 9e3d
000003e0: b1f7 f33d 82bb 84bd 7c4f f53c a717 aebc
000003f0: 3cc8 94bc c323 07bc c89d 433d 3df9 0fbd
