KGCN/kgcn_agg_weights_0_64_books_2.npy (npy, 16512 bytes, 1 tensors)

array f4 [64, 64]
0.4465841 -0.4471351 0.40275282 0.43132064 0.42497742 -0.41594023 0.4116836 0.33544013
-0.3608417 -0.3300223 0.4325796 -0.4069321 -0.4280973 -0.40859166 0.35720444 0.37468588
-0.43365288 0.32934675 -0.3898223 0.32762972 -0.45802268 0.2983922 -0.41332462 0.39973575
0.41222647 0.40255678 -0.4023735 -0.4098902 0.3867743 0.42673558 0.4633786 -0.4121341
-0.3772408 0.33696994 -0.42994878 -0.4398156 0.4399372 -0.42580053 -0.44382152 -0.33316484
0.32375392 0.31688774 -0.4195575 -0.37571096 0.31921205 0.429181 -0.39833376 -0.3168033
-0.34090889 -0.41465905 0.4300602 -0.38519046 0.41313264 -0.45198247 0.40857634 -0.42121485
-0.35203984 -0.38123912 0.42413473 -0.41618508 -0.43672153 0.42666474 0.4512762 0.32159984
0.41822162 -0.39286074 0.419115 0.4224168 0.40708965 -0.44008085 0.41101685 0.3657243
-0.3903398 -0.41728306 0.41187942 -0.36372066 -0.45296764 -0.447168 0.40017542 0.4045593
-0.4445547 0.40097535 -0.37323657 0.41949236 -0.4390759 0.4298182 -0.41237563 0.45320606
0.4453616 0.32014653 -0.37066665 -0.39503154 0.35588112 0.45049182 0.4058273 -0.44833443
-0.3827131 0.3896519 -0.4378441 -0.42107397 0.45291352 -0.44806495 -0.4169938 -0.32199237
0.38877285 0.35002273 -0.38902745 -0.37858137 0.40207857 0.32286355 -0.43874753 -0.442566
-0.30354488 -0.3941017 0.4438454 -0.39969465 0.38057113 -0.31896675 0.42056483 -0.43342972
-0.3244371 -0.39063117 0.3365049 -0.38850817 -0.44057184 0.39856794 0.37477216 0.3826676
0.4116525 -0.39495826 0.2956016 0.43926367 0.413709 -0.36894727 0.41103125 0.39260635
-0.4449829 -0.36242852 0.4390638 -0.3937821 -0.39260992 -0.3248167 0.45541388 0.28875366
-0.44805744 0.45110595 -0.3760945 0.3122969 -0.30448622 0.36552668 -0.4386532 0.4400747
0.34551015 0.42872083 -0.36664814 -0.4430936 0.396231 0.37439626 0.46870285 -0.3666696
-0.43696 0.42392802 -0.4121736 -0.3979241 0.39650542 -0.3935743 -0.43349844 -0.4649373
0.30318314 0.42196995 -0.4342519 -0.41968763 0.45804614 0.4190772 -0.4037761 -0.41519743
-0.40937132 -0.44076586 0.39443138 -0.44957808 0.35973355 -0.41426235 0.4226092 -0.42940283
-0.4040418 -0.45623907 0.4071979 -0.33114457 -0.41643786 0.43546644 0.4410308 0.42885697
-0.43928385 0.45689926 -0.43844455 -0.4386363 -0.44646895 0.46703207 -0.40549642 -0.33419698
0.46275887 0.43511486 -0.41807675 0.44600344 0.43186963 0.49120927 -0.4397175 -0.47852993
0.41354313 -0.37076974 0.3858958 -0.4136785 0.46369666 -0.4479004 0.43072754 -0.48591304
-0.4577278 -0.3860612 0.3538132 0.40044177 -0.42763162 -0.4423377 -0.3880966 0.48877555
0.45112088 -0.4377979 0.44835693 0.41165885 -0.38903618 0.45993832 0.45273492 0.42987037
-0.46875262 -0.46932954 0.42316133 0.42419386 -0.43487862 -0.42496645 0.42962244 0.4515213
0.4623737 0.4011196 -0.4099464 0.44011217 -0.43153644 0.45173636 -0.43423116 0.47335678
0.43581587 0.4390987 -0.39354998 0.42008322 0.35667482 -0.3341756 -0.4070295 -0.4803208
00000000: aca6 e43e e4ee e4be 9e35 ce3e 0fd6 dc3e
00000010: a496 d93e 1ef6 d4be 31c8 d23e cfbe ab3e
00000020: 3ec0 b8be aff8 a8be 137b dd3e 6759 d0be
00000030: 922f dbbe ed32 d1be 80e3 b63e d4d6 bf3e
00000040: c007 debe 23a0 a83e ca96 c7be 15bf a73e
00000050: f381 eabe ddc6 983e 499f d3be 2aaa cc3e
00000060: 590f d33e ec1b ce3e e603 cebe 21dd d1be
00000070: 4807 c63e 167d da3e f63f ed3e 3e03 d3be
00000080: b525 c1be 5387 ac3e 3f22 dcbe 832f e1be
00000090: 733f e13e 8702 dabe 933c e3be 9594 aabe
000000a0: 13c3 a53e 1c3f a23e 3ed0 d6be 305d c0be
000000b0: c36f a33e 9dbd db3e 67f2 cbbe 0b34 a2be
000000c0: 9c8b aebe 314e d4be da30 dc3e af37 c5be
000000d0: 1f86 d33e 3f6a e7be eb30 d13e 79a9 d7be
000000e0: 913e b4be c631 c3be 3028 d93e 3616 d5be
000000f0: f799 dfbe cd73 da3e ad0d e73e bca8 a43e
00000100: 2521 d63e 0b25 c9be 3e96 d63e 0447 d83e
00000110: 0e6e d03e 4752 e1be cd70 d23e 3740 bb3e
00000120: 9eda c7be 20a6 d5be dce1 d23e 9839 babe
00000130: 60eb e7be 34f3 e4be cbe3 cc3e 6622 cf3e
00000140: ac9c e3be a44c cd3e dd18 bfbe b4c7 d63e
00000150: 8ece e0be 2211 dc3e e622 d3be a00a e83e
00000160: 7006 e43e 3fea a33e 05c8 bdbe 9341 cabe
00000170: 0d36 b63e dda6 e63e 99c8 cf3e 178c e5be
00000180: f9f2 c3be 7480 c73e 1a2d e0be 0297 d7be
00000190: 48e4 e73e c568 e5be 3680 d5be 2fdc a4be
000001a0: 3c0d c73e 2e36 b33e 9b2e c7be 6bd5 c1be
000001b0: 3edd cd3e 5f4e a53e 84a3 e0be 0398 e2be
000001c0: 3c6a 9bbe b3c7 c9be b43f e33e c7a4 ccbe
000001d0: 38da c23e 9c4f a3be 4654 d73e 80ea ddbe
000001e0: 9f1c a6be cf00 c8be 5f4a ac3e 8bea c6be
000001f0: a292 e1be 1911 cc3e 23e2 bf3e 02ed c33e
00000200: 1ec4 d23e f837 cabe 1859 973e 2be7 e03e
00000210: abd1 d33e a8e6 bcbe b072 d23e b303 c93e
00000220: ccd4 e3be 3b90 b9be f8cc e03e cf9d c9be
00000230: 2b04 c9be 604e a6be 022c e93e 85d7 933e
00000240: c967 e5be 5cf7 e63e 758f c0be 61e5 9f3e
00000250: 9ee5 9bbe 5026 bb3e 2797 e0be 7951 e13e
00000260: b5e6 b03e 4c81 db3e 4eb9 bbbe 2add e2be
00000270: cade ca3e deb0 bf3e d2f9 ef3e 1ebc bbbe
00000280: 39b9 dfbe 180d d93e 6b08 d3be b5bc cbbe
00000290: c202 cb3e 9282 c9be 82f3 ddbe 430c eebe
000002a0: d23a 9b3e 720c d83e 4456 debe 4ce1 d6be
000002b0: 0685 ea3e 4991 d63e bebb cebe c294 d4be
000002c0: 1e99 d1be 10ac e1be e9f2 c93e 192f e6be
000002d0: ff2e b83e 321a d4be 3c60 d83e b0da dbbe
000002e0: 91de cebe 2b98 e9be 3e7c d03e c88b a9be
000002f0: 5837 d5be 75f5 de3e cace e13e 2493 db3e
00000300: d0e9 e0be b3ee e93e ce7b e0be f094 e0be
00000310: 9497 e4be d41e ef3e 3a9d cfbe de1b abbe
00000320: bbee ec3e 60c7 de3e 280e d6be 905a e43e
00000330: 041e dd3e c87f fb3e a722 e1be e001 f5be
00000340: edbb d33e 88d5 bdbe 2294 c53e abcd d3be
00000350: a669 ed3e 3453 e5be 5288 dc3e 98c9 f8be
00000360: 4c5b eabe d0a9 c5be 0127 b53e b406 cd3e
00000370: 88f2 dabe 167a e2be 99b4 c6be ca40 fa3e
00000380: 51f9 e63e 0c27 e0be 0a8f e53e f3c4 d23e
00000390: c02f c7be 097d eb3e dfcc e73e f817 dc3e
000003a0: 5800 f0be f64b f0be 9aa8 d83e f02f d93e
000003b0: 69a8 debe 3495 d9be 79f7 db3e cd2d e73e
000003c0: 3fbc ec3e 8c5f cd3e 7fe4 d1be 6256 e13e
000003d0: 58f2 dcbe fd49 e73e 8c53 debe d25b f23e
000003e0: 4223 df3e 8bd1 e03e 627f c9be 2615 d73e
000003f0: 159e b63e 1019 abbe 2c66 d0be 9cec f5be
