KGCN/kgcn_agg_weights_1_64_books_2.npy (npy, 16512 bytes, 1 tensors)

array f4 [64, 64]
0	0xb43e7083	-1.773606e-07
1	0x3b81f66f	0.0039661448
2	0x39f918f6	0.00047511578
3	0x30f993d7	1.8159153e-09
4	0x22688fea	3.151805e-18
5	0x8e20266d	-1.9740024e-30
6	0x0dbf2c86	1.1782002e-30
7	0x3c6d2d0c	0.014476072
8	0xa1dae560	-1.483297e-18
9	0x3bc5f7d9	0.0060415086
10	0x0d637cd2	7.0100023e-31
11	0x34f812e2	4.620734e-07
12	0x3b90325f	0.004400536
13	0x355fb2c4	8.333411e-07
14	0x3bafb95f	0.005362674
15	0x3c5ba754	0.013406593
16	0x0dc641c5	1.2218526e-30
17	0x3c94a72b	0.018146118
18	0x3aa3f631	0.0012509284
19	0x8d9cc26c	-9.661048e-31
20	0x339bdaca	7.2575475e-08
21	0x3c984181	0.018585922
22	0x8d9dc334	-9.7228655e-31
23	0xbaadb0a2	-0.0013251493
24	0xbaed6958	-0.001811306
25	0x9b051eca	-1.101145e-22
26	0x0e0a1483	1.701969e-30
27	0xbb2e77ee	-0.0026621777
28	0xb587cca3	-1.0117841e-06
29	0x0ce4cd84	3.5252652e-31
30	0xaaf0b4a6	-4.2757914e-13
31	0x3c9ffb61	0.019529046
32	0x3c6eb68c	0.01456989
33	0xb10fa8ec	-2.090526e-09
34	0x8e54f650	-2.6249613e-30
35	0x3c6027c9	0.0136813605
36	0xb49d33d3	-2.9281236e-07
37	0x2c90cc2e	4.1153947e-12
38	0x3c2d9ab7	0.010595969
39	0xb28069b7	-1.4949235e-08
40	0x3bead027	0.007165927
41	0x2af4fee6	4.3519978e-13
42	0x309c6bb2	1.1381103e-09
43	0x3c40c210	0.011765018
44	0xbaf7ba90	-0.0018900204
45	0xbb40bf45	-0.002941088
46	0x241da9f7	3.4187914e-17
47	0xbaf83963	-0.0018938001
48	0xbb0524ac	-0.0020316048
49	0x2f883461	2.4775473e-10
50	0x2c0d45db	2.0076083e-12
51	0xb29e15dc	-1.8403561e-08
52	0x3c91c17d	0.017792458
53	0xb4306ba8	-1.6430442e-07
54	0x3c9e02d1	0.019288452
55	0x3c231e81	0.009956003
56	0xbad0e85a	-0.0015938387
57	0x3c396ca0	0.011317402
58	0xbad43726	-0.0016190752
59	0x3bc395f5	0.005968804
60	0x3c787b58	0.015166126
61	0xad181308	-8.6444255e-12
62	0x3c6aa195	0.014320751
63	0x8e1b8118	-1.9167381e-30
64	0xae56048b	-4.8662e-11
65	0xac9b5cb9	-4.4156592e-12
66	0xab50cb3a	-7.417848e-13
67	0x8e0c056f	-1.7258948e-30
68	0x8dc143f8	-1.1910906e-30
69	0x160457a5	1.0690531e-25
70	0x17e3021f	1.4670067e-24
71	0x245fc475	4.8521822e-17
72	0x8c98d651	-2.3548295e-31
73	0x2dd9deb0	2.4768937e-11
74	0xa35b3cb8	-1.18848715e-17
75	0x989d938e	-4.073254e-24
76	0x342a3b8c	1.5854147e-07
77	0xb498c229	-2.8453476e-07
78	0xa66e6fc9	-8.2724335e-16
79	0x8d33d696	-5.541693e-31
80	0x0dd97b7f	1.3403388e-30
81	0xa35f0897	-1.2090673e-17
82	0xb1921026	-4.250995e-09
83	0x333fddec	4.467249e-08
84	0x2000ecb7	1.0920344e-19
85	0xb2d1cbdf	-2.4423512e-08
86	0x0c891df0	2.112621e-31
87	0xb5abec09	-1.2809188e-06
88	0xaf5e4531	-2.0215364e-10
89	0x8dba3905	-1.1476862e-30
90	0x8c825246	-2.0079188e-31
91	0x0db2ddff	1.1023541e-30
92	0x8e6cf64f	-2.920784e-30
93	0x0e2e1e42	2.1461724e-30
94	0xab876802	-9.621195e-13
95	0x8dee1384	-1.4672581e-30
96	0x0e49a82e	2.4856138e-30
97	0x8e0663d8	-1.6564848e-30
98	0x0e4a488c	2.4933352e-30
99	0x0deb5f69	1.4505962e-30
100	0x8e66d0b4	-2.8450176e-30
101	0x8e1ec41c	-1.9569427e-30
102	0x90827006	-5.144856e-29
103	0x0e0368e8	1.6197507e-30
104	0x303fae59	6.973316e-10
105	0x8d4e58b5	-6.358543e-31
106	0xa83bd64d	-1.0427054e-14
107	0x345f3224	2.0786734e-07
108	0xb489c944	-2.5664679e-07
109	0x0dbf4db9	1.1789995e-30
110	0x2f8803d4	2.4740976e-10
111	0x0e2e63c3	2.149519e-30
112	0xb43fb9b2	-1.7855817e-07
113	0x32dc8166	2.5670214e-08
114	0x318b22f8	4.049408e-09
115	0xa972292d	-5.377051e-14
116	0x2ce42372	6.484085e-12
117	0x334dc622	4.7910483e-08
118	0x330db387	3.29924e-08
119	0xaf7f291e	-2.3206723e-10
120	0xae0b52b8	-3.167841e-11
121	0xaf6826aa	-2.1114013e-10
122	0xb3822da7	-6.061901e-08
123	0x30860bf5	9.753182e-10
124	0x0e14ec87	1.8356292e-30
125	0x337f52b8	5.9447046e-08
126	0x281d721c	8.739994e-15
127	0x8dd64fe9	-1.3208006e-30
128	0x25892078	2.3787713e-16
129	0x16dc9a19	3.5640166e-25
130	0x2de417a8	2.5931104e-11
131	0xb26056b0	-1.30582265e-08
132	0xb110d80b	-2.1077564e-09
133	0x1abc144c	7.778777e-23
134	0xab686e7c	-8.2576285e-13
135	0x0db430d2	1.110511e-30
136	0x0e2dacf2	2.1407166e-30
137	0x1f12f8e3	3.1122577e-20
138	0x27756989	3.405779e-15
139	0x8e660a1d	-2.8354558e-30
140	0x0dd0c5ba	1.2866591e-30
141	0xa1186cd6	-5.1643646e-19
142	0x8dfa7bf2	-1.5437278e-30
143	0x0e113d3f	1.7902119e-30
144	0x8e4abee4	-2.4990333e-30
145	0xad9e7757	-1.8015518e-11
146	0x9307072d	-1.7042933e-27
147	0x8d1c295a	-4.8120987e-31
148	0x8dfefcd8	-1.57148285e-30
149	0x0d1c3780	4.8138017e-31
150	0x0e291cc4	2.0844708e-30
151	0xb55924be	-8.0892266e-07
152	0x0d0460c8	4.0792137e-31
153	0x352b7d50	6.388482e-07
154	0x8db54419	-1.117138e-30
155	0x8dafa47f	-1.0824809e-30
156	0x0e08f2f5	1.6880274e-30
157	0x0e534e3e	2.604543e-30
158	0x8df4bbc3	-1.5082863e-30
159	0xae8f2f35	-6.511273e-11
160	0x8d431cc2	-6.012363e-31
161	0x8dcc88d2	-1.2605409e-30
162	0x3199bf06	4.474603e-09
163	0x2f4a29ed	1.8386688e-10
164	0xa3a0c452	-1.743038e-17
165	0x8e691496	-2.872938e-30
166	0xb4ddd518	-4.1319504e-07
167	0x30b8e596	1.3453014e-09
168	0x0e000528	1.57797e-30
169	0x308e63f1	1.0360265e-09
170	0x2a600fbb	1.9900654e-13
171	0x0dcffb1d	1.2817813e-30
172	0xa8515b13	-1.1621579e-14
173	0x9797d8ca	-9.812872e-25
174	0x0bbd5b3c	7.2937426e-32
175	0x0df9fcd7	1.5406679e-30
176	0xb1b4ea0b	-5.265297e-09
177	0x2f96be74	2.7420166e-10
178	0xb51da61b	-5.8728773e-07
179	0x34c233b5	3.6172938e-07
180	0xb519c105	-5.727782e-07
181	0x0df4ff65	1.5099145e-30
182	0xad9cef06	-1.7841294e-11
183	0xaef040b9	-1.09254335e-10
184	0xb22b0912	-9.955572e-09
185	0x0dbf7326	1.1799005e-30
186	0xb3886224	-6.350845e-08
187	0x0dc7f44f	1.2323137e-30
188	0x311a39aa	2.2442728e-09
189	0x32726c4c	1.4110878e-08
190	0x336beb3d	5.492915e-08
191	0x9a94bf98	-6.15209e-23
192	0x2c64f087	3.2534268e-12
193	0x3bd621e9	0.006534804
194	0xb7cd9ffc	-2.4512403e-05
195	0x28e1eefd	2.5083663e-14
196	0xb3bb7c27	-8.730449e-08
197	0x8da52450	-1.0177652e-30
198	0x232e0f2c	9.435772e-18
199	0x3c6edfee	0.014579756
200	0x2c227fb5	2.3092476e-12
201	0x3c050030	0.0081177205
202	0x0df92733	1.5355247e-30
203	0x0dfed254	1.5704593e-30
204	0x3b2aaa47	0.0026041435
205	0x0e492ac9	2.4795763e-30
206	0x3c10baee	0.00883363
207	0x3c4ef176	0.012630811
208	0x32ad9d73	2.021145e-08
209	0x3c78e5f7	0.015191547
210	0x3b3221f8	0.0027180891
211	0x8dec3cbf	-1.4559247e-30
212	0x8e272170	-2.0600439e-30
213	0x3ca56342	0.020188931
214	0xb18f6862	-4.1737147e-09
215	0xbaf148fa	-0.001840859
216	0xba8305c9	-0.0009996231
217	0x0e6eb2f0	2.942192e-30
218	0x9b4d25b3	-1.6969384e-22
219	0xbb618d30	-0.003441643
220	0x35477825	7.430811e-07
221	0x2bf6aaf6	1.7526802e-12
222	0x8c9449fc	-2.2847538e-31
223	0x3c91986a	0.017772872
224	0x3c83eacc	0.01610317
225	0x34a9b0c7	3.1607325e-07
226	0xa49fe7c0	-6.934786e-17
227	0x3c8c3b61	0.017118158
228	0x0c617cc2	1.7370912e-31
229	0xa2c787f1	-5.408299e-18
230	0x3c89d532	0.016825292
231	0x8e0e5f5e	-1.7548769e-30
232	0x3c37a3e0	0.011208504
233	0x0e6badfb	2.9049755e-30
234	0xab83ed3e	-9.373958e-13
235	0x3c23c914	0.009996671
236	0x3ad1ffd4	0.0016021677
237	0xbb0d10eb	-0.0021524976
238	0xb3645861	-5.3165767e-08
239	0xbb36a830	-0.0027871244
240	0xbb3fb8d5	-0.0029254456
241	0x2e0fcfdd	3.2699055e-11
242	0x8dda15c8	-1.3440531e-30
243	0x8dcf8f41	-1.2791847e-30
244	0x3c9696be	0.018382426
245	0xaf42ab87	-1.7705136e-10
246	0x3cb6d1d6	0.022316854
247	0x3c644efa	0.013934845
248	0xbb2d963c	-0.0026487252
249	0x3c8e513d	0.017372722
250	0x3b06a605	0.0020545733
251	0x3c0c616b	0.008568148
252	0x3c98ec80	0.01866746
253	0x35075287	5.041151e-07
254	0x3c2db914	0.010603208
255	0x0e306149	2.1740516e-30
