KGCN/kgcn_agg_weights_0_64_books_2.npy (npy, 16512 bytes, 1 tensors)

array f4 [64, 64]
0	0xbdcb1f00	-0.09918022
1	0x3da7579e	0.081710085
2	0xbc460b72	-0.01208769
3	0xbe0f00c4	-0.13965136
4	0xbd91aa1d	-0.07112525
5	0xbbda413e	-0.0066606095
6	0xbde705b9	-0.112803884
7	0x3d00a963	0.03141154
8	0x3d0c0aa9	0.034189854
9	0xbd908f60	-0.070585966
10	0x3d6eb172	0.058274694
11	0xbdd11161	-0.10208393
12	0xbb1e4e5a	-0.0024155588
13	0x3e0e27a9	0.13882317
14	0xbe128756	-0.14309439
15	0xbdca7068	-0.09884721
16	0x3d957a47	0.07298713
17	0xbd9569dd	-0.072955824
18	0xbe0d1682	-0.13778117
19	0x3e0f5050	0.1399548
20	0x3c0474a8	0.008084454
21	0xbdc2e38e	-0.09516059
22	0xbd83c749	-0.06434495
23	0x3e107337	0.14106451
24	0x3e088f1f	0.13335846
25	0xbcb02f59	-0.021506952
26	0x3c2d5661	0.010579676
27	0xbd0c87d3	-0.03430922
28	0xbc481b23	-0.012213501
29	0x39ffe0fe	0.00048805022
30	0x37ec4d56	2.8169405e-05
31	0xbe0cecf1	-0.13762261
32	0x3b314b06	0.0027052774
33	0x39fa0beb	0.00047692595
34	0xbde07299	-0.10959358
35	0x3d61a6b5	0.055090625
36	0x3d726a87	0.059183624
37	0x3d33831c	0.043826208
38	0x3dfcf31e	0.123510584
39	0xbb4193e3	-0.002953761
40	0xbdb6fdc6	-0.08935122
41	0xbd392b6e	-0.045207433
42	0x3d7f52a2	0.062334664
43	0x3d8f5f7a	0.070006326
44	0xbb3e7d48	-0.0029066373
45	0xb9ab7ca8	-0.00032708538
46	0xbd7c1584	-0.061543956
47	0xbd8e4953	-0.06947579
48	0xbe058282	-0.13038066
49	0x3ba4d4ca	0.0050302492
50	0xbdd53ad3	-0.104116105
51	0xbb7c6e47	-0.003851788
52	0x3d4dba42	0.050226457
53	0xbddfad7a	-0.1092176
54	0x3af73311	0.0018859823
55	0xbda3c3ab	-0.07996305
56	0xbe11c849	-0.14236559
57	0xbd605be0	-0.05477512
58	0xbe0056c5	-0.125331
59	0xbd0d2bc9	-0.034465585
60	0xbcc48a66	-0.023991775
61	0x3dea005c	0.1142585
62	0x3c0eeb1c	0.008723047
63	0x3aac23f6	0.0013133276
64	0x3cd33378	0.025781378
65	0xb846e627	-4.7421225e-05
66	0x3d57dc7d	0.05270051
67	0xbd89e4ae	-0.0673307
68	0xbd9a37b1	-0.075301535
69	0xbc4d5576	-0.0125325825
70	0xbd488b8f	-0.04896122
71	0xbca34a83	-0.01993299
72	0x3cc1a235	0.023636917
73	0x3c66d0e7	0.014087892
74	0x3bc89cb2	0.006122195
75	0x3da4c081	0.0804453
76	0xbd66b491	-0.056324545
77	0xbdb0a917	-0.08626001
78	0xbdc0bc1a	-0.094108775
79	0x3e034e7b	0.12822907
80	0xbdbecfce	-0.09316979
81	0xbc4a7c5f	-0.012358754
82	0xbab09380	-0.0013471693
83	0x3cbaa96d	0.022785867
84	0x3aa3a7e0	0.0012485944
85	0xba119b22	-0.00055544276
86	0xbdf5e42f	-0.12006413
87	0xbe0a9ac2	-0.13535598
88	0x3cce869d	0.025210673
89	0xb95e05c7	-0.00021173722
90	0x3d82e487	0.063912444
91	0x3d860b74	0.06545153
92	0x3e031f6e	0.12804958
93	0x3db8ca0e	0.09022914
94	0x3bab8606	0.0052344827
95	0x3d588741	0.052863363
96	0x3a6d3d6c	0.0009049985
97	0x3bb00a13	0.0053722947
98	0xbd7b1772	-0.061301656
99	0xb8bb2ad2	-8.924831e-05
100	0xbdeb5277	-0.11490338
101	0x3e048b12	0.12943676
102	0xbdcf9406	-0.10135655
103	0xbb795b2f	-0.0038048734
104	0x3dfb7020	0.122772455
105	0xbc9d2c3a	-0.019186128
106	0xbda52cb7	-0.08065169
107	0xbceb8a29	-0.028752403
108	0xbdbce568	-0.09223443
109	0x3d9018d1	0.07035983
110	0x3d1959e3	0.03743924
111	0x3dcec3e2	0.100959554
112	0xbd9ea47a	-0.07746215
113	0xba9e3541	-0.0012070314
114	0x3d16ca62	0.0368141
115	0xbe05aaf1	-0.1305349
116	0x3c0f9034	0.008762408
117	0xbc99e729	-0.018786984
118	0xb8bc8911	-8.990069e-05
119	0xbdb79dbf	-0.089656346
120	0xb9e587d1	-0.00043779475
121	0x3d47fbf6	0.048824273
122	0xbd16c825	-0.036811966
123	0xbde7a45d	-0.11310647
124	0x3dd995b5	0.106242575
125	0xbdd3c846	-0.103409335
126	0xbd13eb00	-0.036112785
127	0x3d930934	0.0717949
128	0x3d9363c6	0.07196765
129	0xbddf24d5	-0.10895697
130	0xbd471862	-0.048607238
131	0x3d50baf6	0.05095955
132	0xbdf9fa70	-0.1220597
133	0xbc8bc268	-0.017060474
134	0xbcad9a1f	-0.021191655
135	0xbac1f88f	-0.0014798808
136	0xbd234134	-0.039857104
137	0x3dfd4519	0.12366695
138	0xbc68c38f	-0.014206781
139	0xbcd31dac	-0.025770985
140	0x3dca698c	0.09883413
141	0xbdcf0b92	-0.10109629
142	0x3b657060	0.0035009608
143	0xbce73e84	-0.028228052
144	0x3dea9a71	0.114552386
145	0x3dbdfa19	0.09276218
146	0xb9b0aad0	-0.000336966
147	0x3be22ea3	0.006902532
148	0x3b152686	0.0022758557
149	0xbd98c1fe	-0.07458876
150	0x3d92d5df	0.07169699
151	0xbc790675	-0.015199293
152	0xbe09df2a	-0.13464037
153	0xbd8b94ca	-0.06815489
154	0xbd43697f	-0.04770803
155	0xb98d4350	-0.00026943767
156	0x3a7002c4	0.00091556855
157	0x3ce6bdb3	0.028166628
158	0xbd0c0b43	-0.034190428
159	0xba3b6b68	-0.00071494887
160	0x3daef6ef	0.085431926
161	0x3dca38a0	0.098740816
162	0x3d72d9d4	0.05928977
163	0x3d84ec45	0.06490377
164	0x3e0e2a1f	0.13883255
165	0xbd48f29c	-0.049059495
166	0x3ca4e16a	0.020127017
167	0xbb313945	-0.0027042192
168	0xbe037f25	-0.1284147
169	0xbd67a773	-0.056556176
170	0x3a2f520a	0.0006687945
171	0x3c562319	0.013069891
172	0x3b4c0c19	0.003113514
173	0x3dc81bb6	0.097709104
174	0x3d56167d	0.05226754
175	0xbd5818fb	-0.0527582
176	0xbaeb3840	-0.0017945841
177	0x3c359040	0.011081755
178	0xbc645c4c	-0.013938021
179	0xbdca73dc	-0.0988538
180	0x3e02633f	0.12733172
181	0x3cdf03d2	0.027223501
182	0x3c230be7	0.009951568
183	0xbd65f328	-0.056140095
184	0x3addab7c	0.0016912068
185	0x3cf379be	0.029721137
186	0xb52e1fca	-6.486631e-07
187	0x39c109f4	0.00036819244
188	0xb7441feb	-1.1689942e-05
189	0xbe10ccb0	-0.14140582
190	0x3dd39e07	0.10332876
191	0x3bcb99ae	0.0062133884
192	0xbddadfe9	-0.10687239
193	0x3e00facc	0.12595671
194	0x3c33065e	0.010926811
195	0x3daf3137	0.08554309
196	0x3af9b967	0.0019052447
197	0x3cc2ddf1	0.02378747
198	0x3e001d5a	0.12511197
199	0x3df26f64	0.11837652
200	0x3e153d78	0.1457423
201	0x3b54670f	0.003241006
202	0xb7d96f5e	-2.5920275e-05
203	0x3e07f4b3	0.13276939
204	0x3a961030	0.0011448916
205	0x3e136067	0.14392243
206	0xbc0fedf5	-0.008784761
207	0x3d80097a	0.062518075
208	0x3aa485a8	0.001255204
209	0x3959880b	0.00020745413
210	0x3df4d97b	0.119555436
211	0xbcb56434	-0.022142507
212	0x3dbaab70	0.0911473
213	0xbd0fd37d	-0.0351138
214	0x3e07f8ed	0.13278551
215	0xbcdb4a91	-0.026768954
216	0x3b87bd35	0.0041424283
217	0xbc976b0f	-0.018483667
218	0xbd8922e7	-0.0669611
219	0x3de89964	0.11357382
220	0x3c264312	0.010147827
221	0xbd18cdb5	-0.037305553
222	0xbde462f9	-0.1115169
223	0xbdae99a7	-0.085254006
224	0xbbe9b01d	-0.00713159
225	0x3d9f3b43	0.07774975
226	0xbd4ba132	-0.049714275
227	0xbb137c2f	-0.002250444
228	0x3ce05a9d	0.027386958
229	0xbdd9d456	-0.10636203
230	0xbb8fef34	-0.004392529
231	0x3e096f97	0.13421474
232	0xbddace3b	-0.106838666
233	0x3ddf8b20	0.10915208
234	0x3dfce757	0.12348812
235	0x3e173263	0.14765315
236	0xbd21052a	-0.039311565
237	0xbc89f720	-0.016841471
238	0xbdf58b64	-0.11989477
239	0x3da1b75e	0.07896303
240	0x3db7363e	0.08945893
241	0xba73e942	-0.00093044725
242	0xb9403e1d	-0.00018333686
243	0x390c62ec	0.00013388292
244	0xbb9007d7	-0.004395466
245	0x3be8d3e0	0.0071053356
246	0x3d9ae3b1	0.0756296
247	0x3c8df089	0.01732661
248	0x3e108989	0.14114965
249	0x3c8a1591	0.016855987
250	0xbe0e9043	-0.13922219
251	0x3d9aa13e	0.07550286
252	0xba0e92d4	-0.0005438749
253	0xbdec60ff	-0.11541938
254	0xbdecea3f	-0.115681164
255	0xbd52f994	-0.051507547
