KGCN/kgcn_agg_weights_2_64_books_2.npy (npy, 16512 bytes, 1 tensors)

array f4 [64, 64]
00000000: 24eb 8fbb 569e 03be 1337 ba3d e808 3fbd
00000010: 9577 5dbb bb31 da3d db9f 22bc 8cf9 85bd
00000020: cf4e 2c3d 676e 823d bc6f e9bd 12d8 dabc
00000030: 01e2 f1bd b118 053e c61c 793d bfba 703c
00000040: ea75 293a e4ae 8d3d 638e 703d 518d e03d
00000050: 46d7 e03b b81c 3e3b 3dbd f33d 8a60 81bd
00000060: 1249 bebd 0770 193e 9de2 76bc f521 e23d
00000070: 9beb 65ba 9111 103c 6fb3 10be ba34 f53d
00000080: 969b d2bd 3a57 1cbe 20e1 183e 8d4d 203e
00000090: 80a6 cb3d d9a2 133b b8ba 8abd bff2 04be
000000a0: 050c 9d3d 4200 0abe 2fe6 ff3b ef26 dfbd
000000b0: f306 12bc 6344 03ba 3d45 223d 51cb 1f3e
000000c0: 43a3 193e a0e3 9fbb da92 513a 150b 823d
000000d0: 1066 1dbd f8e5 a43d 57e5 b73a ff5e 8c3b
000000e0: 5e91 b1bb fa19 a4bd 1ab7 92bc f8ce bb3b
000000f0: 6c6c 1bbe dc40 3cbd edb0 96bd f486 4ebd
00000100: d165 bdbc ad28 48bd 2358 d0bc 2a1a bfbc
00000110: 9a13 aabd f0ca 073e cdcf e7bd adf7 1fbd
00000120: 8ab9 103d 7244 4a3b 9698 ed3c 13e8 13be
00000130: bc1d d93d 7868 da3b 6e6c cd3d a6b3 d6bd
00000140: 0da0 93b9 17a1 093e fafa 7dbc 8297 ee39
00000150: 58b5 0c3e d194 db3a b8ce b53d 7220 8c3c
00000160: 7c7d eebd 6087 afbc 29b2 5d3d 23c4 e4bc
00000170: 4dae 393c 7d11 e0bd db85 febd 60a4 85bd
00000180: e8c9 193e d8df 3a3d bad2 03ba 7a7b 52bd
00000190: ef60 023d 625e 1e3e 3fc2 1cba 076b 4dbd
000001a0: b9b9 b1bd 23bb febb 31f0 013e 4ab3 8b3a
000001b0: af13 10bd 1364 c3bd 0006 253b 7563 3cbd
000001c0: 5477 13be edd1 183e 8ed8 8a38 d744 08be
000001d0: 3626 b53a 0c6a 913d e1e3 6d3a 9905 643c
000001e0: 6388 feba 4866 3f3b 8de6 a3bd 1f03 783c
000001f0: 3884 b6bd 8bef 0dbb 32d6 0cbd 7c3f 183d
00000200: 3775 11bc 79b1 a5ba c43d 283a dd34 cf3d
00000210: 686a 343a 7766 c23d 5ba6 dc3d 428b a83d
00000220: d75c 16be ad77 ab3d 6b22 a23d fbd0 fa3c
00000230: cd0a 0ebe c4da 1cbe a00a 1d3e 1582 f33d
00000240: e71c cb3d 470c 093e eb5c 57bd 2692 b1bd
00000250: 204a b63c 42a9 c63d f466 f2bd 7270 f2bd
00000260: 8192 1f3b e16e 1e3e e545 20bd 4244 cabd
00000270: c7ee e8bc 3c90 04bd 98a5 a73d 5ac7 cdbd
00000280: 0561 a8b8 5e99 27bc 7dad bdbc 9b7d 3bb9
00000290: 39b7 a4bc 8593 b73b 4a3a ba3d 2afc b93d
000002a0: 451c 81bb 762d bfb8 88e0 8d3d 6bb2 963d
000002b0: b5ce 0b3e d00a 173d d7db 0c3e 8dbb cebd
000002c0: 8434 e6bc d3d5 85bd e408 9bbc c2c0 a53d
000002d0: 9ebd 0fbd 4386 e93d 4607 723d 46ae 843c
000002e0: 294b 253d 2d11 b739 3e3e 10be 09f4 89bd
000002f0: d4ee b7bc 5fa1 813c 3736 873d 39c3 4dbc
00000300: 4d16 3c3d 2568 fe3d 72d0 293d efb7 a9bc
00000310: e95c 1ebc ce7b 11be 161e 05ba 6997 18be
00000320: c785 113e cdd5 b0bd ece7 e83d 4ecb a2bd
00000330: f969 193d e8b6 fdbd 1e71 afbd 0c84 df3d
00000340: 62bd dfbd 60b3 94bc 5fe0 013e 16f0 1a3d
00000350: bec9 93bd 7496 17be af28 023b 39d0 203d
00000360: 606f be3c 6e0f 0bbd a163 8c3c 5372 1ebe
00000370: 26a1 18be 7f15 18be 3863 c1ba c8c3 9dbd
00000380: e7ce 093e fc17 14bc 06f9 1abc c020 d53d
00000390: f5d5 223a 1521 8bba f046 fdbd 6f49 5a3c
000003a0: b42a 4d3d 4d3e 3fbd 70e7 f3bc 9946 d5bc
000003b0: 0cb5 03be c120 acbd a287 1abe 8198 883d
000003c0: e42c d13d ac88 08be 09de 89ba bbf0 e6bd
000003d0: a773 1d3e ff25 373d 6828 91bd 997c bbbd
000003e0: 0d8b 023e b70d 8fbb 24c8 a23c 4584 53bb
000003f0: ec87 6d3d 804b 113d b43e dcbd 9e91 2f3d
-0.0043920446 -0.12853369 0.09092536 -0.046639353 -0.00337932 0.106540166 -0.009925808 -0.06541738
0.042067345 0.06368714 -0.11398265 -0.026714358 -0.11810685 0.129977 0.060818456 0.014692961
0.0006464409 0.06918123 0.05872954 0.10964454 0.0068616 0.0029008817 0.11901329 -0.063172415
-0.09291281 0.14984141 -0.015068677 0.11041633 -0.00087707647 0.008793251 -0.14130948 0.119729474
-0.10283582 -0.1526765 0.14929628 0.15654583 0.09943867 0.0022527485 -0.06773895 -0.12983225
0.07668308 -0.13476661 0.0078094224 -0.10896098 -0.00891279 -0.0005007444 0.039616812 0.15604903
0.15003686 -0.00487943 0.00079946 0.0634977 -0.038427413 0.080516756 0.0014030141 0.0042837854
-0.0054189404 -0.08012767 -0.017909575 0.0057314597 -0.15178078 -0.045960292 -0.07357965 -0.05042167
-0.023119839 -0.048866916 -0.025432652 -0.023327906 -0.0830452 0.13261008 -0.11318932 -0.03905456
0.035333194 0.003086355 0.029003423 -0.14443998 0.106013745 0.0066652857 0.10030447 -0.10483484
-0.00028157272 0.13440357 -0.015501732 0.0004550778 0.13741052 0.0016752725 0.08877319 0.017105315
-0.11645028 -0.021426857 0.054124985 -0.027925557 0.01133306 -0.109408356 -0.12427875 -0.06525493
0.15018427 0.04562363 -0.0005028654 -0.051387288 0.031830724 0.15465692 -0.00059798727 -0.050150897
-0.08678002 -0.0077737733 0.12689282 0.0010658291 -0.03517502 -0.09540572 0.0025180578 -0.045993287
-0.14400989 0.1492383 6.620689e-05 -0.1330751 0.0013820592 0.07100305 0.0009074789 0.01391735
-0.0019419309 0.0029205251 -0.080029584 0.015137463 -0.089119375 -0.0021657671 -0.03438396 0.03716992
-0.008878044 -0.0012641392 0.0006417895 0.10117505 0.0006882311 0.094922 0.10773917 0.08229686
-0.14683853 0.08372436 0.07916721 0.030617228 -0.13871308 -0.15317827 0.15336084 0.118900456
0.09917622 0.1338359 -0.052578848 -0.08670454 0.022252142 0.09700252 -0.11836043 -0.118378535
0.0024348798 0.15471984 -0.039129157 -0.098763004 -0.02843417 -0.032364115 0.081858814 -0.10047789
-8.0289356e-05 -0.010229437 -0.023154015 -0.00017880501 -0.020106899 0.0056023025 0.09093149 0.090812996
-0.0039401376 -9.1160575e-05 0.069275916 0.07358249 0.13653071 0.036875546 0.13755737 -0.10094366
-0.028101213 -0.06534924 -0.018925138 0.08093406 -0.035092942 0.114025615 0.059088968 0.016196381
0.04035488 0.00034917277 -0.14086244 -0.06735999 -0.02245275 0.015824018 0.066021375 -0.012558752
0.045919705 0.12422208 0.041458555 -0.02071759 -0.009665706 -0.14207384 -0.00050780305 -0.14901508
0.14211188 -0.08634529 0.113723606 -0.079489335 0.03745458 -0.12388402 -0.08566497 0.10913858
-0.10924794 -0.018151939 0.12683247 0.03782662 -0.07216214 -0.14803487 0.0019860675 0.039261077
0.023246467 -0.03395026 0.01713735 -0.15473299 -0.14905223 -0.1485195 -0.0014754301 -0.07703358
0.13457833 -0.009038921 -0.009458786 0.10406637 0.00062116917 -0.0010614718 -0.12367046 0.013323172
0.050089553 -0.046690274 -0.029773444 -0.02603464 -0.12862033 -0.08404685 -0.15090802 0.06669713
0.1021364 -0.13333386 -0.0010518442 -0.112763844 0.15376149 0.04471397 -0.07087785 -0.091546245
0.12748356 -0.0043656486 0.019870825 -0.0032274884 0.057990953 0.035472393 -0.10754147 0.04286348
