KGCN/kgcn_agg_weights_0_64_news_2.npy (npy, 16512 bytes, 1 tensors)

array f4 [64, 64]
0	0xbe2643a6	-0.16236743
1	0xbe18bcd2	-0.14915779
2	0x3e3af8ff	0.18259047
3	0x36cc228d	6.083696e-06
4	0x3cbff6c1	0.023433091
5	0x3e0fe929	0.14053787
6	0x3c92efdf	0.017936645
7	0x3ddbac2d	0.10726199
8	0xbdb4059e	-0.08790134
9	0x3e050884	0.1299153
10	0x3dfc55d9	0.12321062
11	0xbd698443	-0.0570109
12	0xbb371d39	-0.0027941002
13	0x3dc0f56c	0.094218105
14	0x3dd62fde	0.10458349
15	0x3e1cba8a	0.15305534
16	0xbde68e8b	-0.11257657
17	0xbd14a992	-0.036294527
18	0x3dca9a87	0.09892755
19	0xbdedbdfd	-0.11608503
20	0x3e05fc1a	0.1308445
21	0xbcf515ca	-0.029917616
22	0xbd9e18a3	-0.07719543
23	0xbe36b1a3	-0.178412
24	0xbe1238d8	-0.14279497
25	0x3e2c08e2	0.16800264
26	0x3e243096	0.16034159
27	0x388f6c43	6.838937e-05
28	0x3821acce	3.8546328e-05
29	0xbd2179a1	-0.039422635
30	0x3e007e86	0.12548265
31	0xbe34352e	-0.17598411
32	0xbdb5fb39	-0.088858075
33	0x3c935dd0	0.01798907
34	0x3d921150	0.07132208
35	0x3e3eb615	0.18624146
36	0xbe2e274c	-0.17007178
37	0xbdec72bc	-0.11545321
38	0xbd50ac9f	-0.050945874
39	0xbd53183a	-0.051536776
40	0xbdf51826	-0.119674966
41	0xbd824125	-0.063600816
42	0x3e2855be	0.16438958
43	0x3d3c94c5	0.046040315
44	0x3816260a	3.5798214e-05
45	0xb85606fb	-5.1028077e-05
46	0xbdf61b4d	-0.12016926
47	0xbdfc0946	-0.12306456
48	0xbd0310d6	-0.031998478
49	0xbc108c98	-0.008822583
50	0x3e383f75	0.17992957
51	0x3d87a0fb	0.066225015
52	0xbd6d75b9	-0.057973597
53	0x3d1f8578	0.038945645
54	0xbe27ee80	-0.16399574
55	0x3e14f569	0.14546742
56	0xbdab44ee	-0.08362757
57	0xbd646961	-0.05576456
58	0xbb9bb284	-0.0047515053
59	0x3d0986b5	0.033575732
60	0xbe3910d8	-0.18072832
61	0x3cd26826	0.025684427
62	0x37ed2a85	2.8272401e-05
63	0xbda65e1a	-0.08123417
64	0x3c0aa571	0.008462296
65	0x3cfd1b85	0.030896911
66	0x3bbc145b	0.0057397312
67	0xbe10c1d3	-0.14136438
68	0xbd04216e	-0.032258444
69	0xbdf62919	-0.120195575
70	0xbcffce21	-0.03122622
71	0xbd048722	-0.032355435
72	0xbe039301	-0.12849046
73	0x3daec9b1	0.08534563
74	0x3e32970e	0.17440435
75	0xbd8ef3d1	-0.06980098
76	0x3d90c186	0.07068162
77	0xbc763915	-0.015028258
78	0x3d336123	0.04379381
79	0xbe0f8826	-0.1401678
80	0x3c8a2457	0.016863031
81	0xbddca774	-0.10774127
82	0xbd103241	-0.035204176
83	0xba95ba75	-0.0011423366
84	0x3bae5083	0.0053196563
85	0x3e0f3672	0.13985613
86	0xbe344fa8	-0.17608511
87	0xbc836fb6	-0.016044479
88	0x3df78c90	0.12087357
89	0x3cbdca9b	0.023167899
90	0xbe3ca1cc	-0.18421096
91	0xbd2c5105	-0.042069454
92	0xbe1fe65d	-0.1561522
93	0xbcbaa790	-0.022784978
94	0x3de49685	0.11161522
95	0x3e18272a	0.1485869
96	0x3dfb40c5	0.12268213
97	0x3852b50d	5.023652e-05
98	0xbbd91e85	-0.0066259527
99	0x3d43ab5a	0.047770835
100	0x3dee7737	0.11643832
101	0xbc024aeb	-0.007952432
102	0x3e09eafb	0.13468544
103	0xbcf6a649	-0.030108588
104	0xbd530062	-0.051514037
105	0x3da04b9c	0.07826921
106	0xbe0ee0df	-0.13952969
107	0x3d46755d	0.04845177
108	0x3dc68a02	0.09694292
109	0xbdc791aa	-0.0974458
110	0xbdeb6954	-0.11494699
111	0x3c996167	0.018723203
112	0x3c54e402	0.012993814
113	0x3cd0f604	0.025507934
114	0x3ce0db2b	0.027448257
115	0x3dc81167	0.09768944
116	0xbb8933b3	-0.004187071
117	0xbc8925ab	-0.016741594
118	0x3cd75d37	0.026289565
119	0xbd1fa20e	-0.038972907
120	0x3daf197f	0.08549785
121	0xbd9bb82a	-0.07603486
122	0xbdeefa6f	-0.1166886
123	0xbe20e37a	-0.15711775
124	0xbc40aa16	-0.011759302
125	0xbd182008	-0.037139922
126	0xbcee0679	-0.02905582
127	0xbe3fb0c1	-0.1871977
128	0xbe2b4215	-0.16724427
129	0xbe2b838a	-0.16749397
130	0x3e1a5aa8	0.15073645
131	0xbde660e9	-0.11248953
132	0xbe33cc25	-0.17558344
133	0x3df25c0b	0.11833962
134	0x3d8a1295	0.067418255
135	0xbe32701c	-0.17425579
136	0x3adb5fdf	0.0016736946
137	0x3d68aa82	0.056803234
138	0x3c343a28	0.011000194
139	0x3dab1e59	0.08355398
140	0xb7821cac	-1.5510559e-05
141	0xbd76bbd8	-0.060237736
142	0xbda43628	-0.08018142
143	0x3d2dadc9	0.042402063
144	0x3dcc8534	0.09986344
145	0xbd4ed304	-0.05049421
146	0x3e1dd6f3	0.15414028
147	0xb9389992	-0.00017604817
148	0x3d56b260	0.052416205
149	0xbdda182a	-0.1064914
150	0xb911f421	-0.00013919223
151	0xbda83ab3	-0.08214321
152	0xbdc25810	-0.09489453
153	0x3d60b523	0.054860245
154	0xbd9a9a2c	-0.07548937
155	0x3e38357c	0.17989153
156	0xbe2a4142	-0.16626456
157	0x3d3ac472	0.0455975
158	0xbd2a8ea4	-0.04163994
159	0xbd89a234	-0.06720391
160	0xbe25d513	-0.16194563
161	0xbbc9f3ea	-0.00616311
162	0x3e27cc26	0.1638647
163	0x3dd1902b	0.10232576
164	0xbe1e6366	-0.15467605
165	0xbb078304	-0.0020677457
166	0x3d0ad978	0.0338988
167	0xbe323cd2	-0.17406014
168	0xbc910e4e	-0.017707016
169	0x3e023446	0.12715253
170	0xbe1fc9e7	-0.15604363
171	0x3d5b9689	0.05361036
172	0x3cea5b23	0.02860791
173	0x3df4d7ed	0.11955247
174	0x3e237f5b	0.15966551
175	0xbde58a47	-0.11208015
176	0x3db3e683	0.08784201
177	0xbc89b6d6	-0.016810816
178	0x3e0032d9	0.12519397
179	0x3e1eabc1	0.15495206
180	0x3e0264fd	0.12733836
181	0x3dba82fb	0.09107014
182	0xbe1f5a62	-0.15561822
183	0x3ae89a21	0.0017746129
184	0x3d2626ec	0.040564463
185	0xb90456f8	-0.000126209
186	0xbe32abe5	-0.17448385
187	0xbe03b624	-0.1286245
188	0x3e0caf65	0.13738783
189	0x3dcfcb4b	0.10146197
190	0xbdc2b338	-0.095068395
191	0xb8ed0a1b	-0.00011302923
192	0xbe3bc9b4	-0.18338662
193	0xbd337009	-0.043808017
194	0xbce1c1c3	-0.027558213
195	0xb7b258cd	-2.1260605e-05
196	0x3e306dfb	0.17229454
197	0x3a097290	0.00052432064
198	0xbde15498	-0.11002463
199	0xbdee5b53	-0.116385125
200	0xbe0d7a26	-0.13816127
201	0xbded8574	-0.1159772
202	0xbe081447	-0.13288985
203	0xbdbcd8a4	-0.092210084
204	0xbc93a136	-0.018021207
205	0xbe2c4fce	-0.16827318
206	0x3e302b7e	0.17204091
207	0xbd554603	-0.05206872
208	0xbe14d590	-0.14534593
209	0xbbb255aa	-0.005442341
210	0xbd703606	-0.05864527
211	0x3e3d8cac	0.18510693
212	0xbdbd3a5e	-0.09239648
213	0x3cf45c9f	0.029829321
214	0x3c918be3	0.017766898
215	0xbe15518f	-0.14581893
216	0xb811c571	-3.4754576e-05
217	0xbd01d27e	-0.03169488
218	0xbd9be535	-0.07612077
219	0x3ddc6641	0.10761691
220	0x3dd71385	0.1050177
221	0xbe0f5ffc	-0.14001459
222	0x3e18aa42	0.14908698
223	0x3d9423f0	0.07233417
224	0x3c7bd780	0.015371203
225	0xbd80757c	-0.06272408
226	0x3d3ef5ad	0.046621013
227	0xbda6ce7d	-0.08144853
228	0x3e13c41f	0.14430283
229	0x3dd69dac	0.10479292
230	0x3d809903	0.06279185
231	0x3d6ece4c	0.05830221
232	0x3dfeae56	0.12435596
233	0x3dd9461a	0.10609074
234	0x3b43039b	0.0029756788
235	0x3d895af3	0.067068
236	0xbe383357	-0.17988335
237	0xbd4c2c0c	-0.049846694
238	0x3e2b4bf4	0.16728193
239	0x3bf35902	0.007426382
240	0x38912346	6.920709e-05
241	0xbd743064	-0.05961646
242	0x3830a864	4.2118496e-05
243	0x3be95115	0.0071202614
244	0x3d99054c	0.074717134
245	0x3e311b93	0.17295675
246	0xbc962121	-0.018326344
247	0x3e06018b	0.13086526
248	0xbd61efef	-0.05516046
249	0x3a09f5a7	0.00052627403
250	0xbe015635	-0.12630542
251	0xb8891d4c	-6.538126e-05
252	0x3e0622d1	0.13099219
253	0x36dd3a60	6.593109e-06
254	0xbd36ddd1	-0.044645134
255	0x3d6d4f93	0.057937216
