KGCN/kgcn_agg_weights_0_64_news_2.npy (npy, 16512 bytes, 1 tensors)

array f4 [64, 64]
00000000: 458c 11bd edc0 22be f517 74bd 96cd 55bd
00000010: 9ca9 f13c a38b 2fbe e071 74bc 29a0 e9b8
00000020: ffb1 3b3e ee8b 353e 776e f23c c580 e83d
00000030: 7a51 6cbd 97aa 02bd 2349 82bd 319e a0bc
00000040: 4863 88bc 0935 22bb 4042 ecbd 92ac 07be
00000050: 9cae 2e3e 92a0 d5bc 8f6b 293e 4919 cbbd
00000060: d97e b33d 9a3f 163e 343e 433e 62d2 eab7
00000070: f69b 12be d6f8 d3bd f2c0 3ebe 29bc dc3c
00000080: 653d a9bd dfa0 92bd fc29 e4bb 0caf 2abe
00000090: 44fe ed3d ec84 063e 0870 8e3c 2814 9d3b
000000a0: 46ff f3bd 8769 063e f4d4 33bd 8ac9 d33d
000000b0: 1a38 9ebd dd2c 15be 51ff ac3b 3b51 043e
000000c0: 0068 cfbd c6e4 d23d dcac b4bd faf9 0a3e
000000d0: 6703 8d3b 0c63 12be 1572 f23d 6822 903d
000000e0: 17ed 3fbb 3c8e 343e 042d 2f3e aefa 203e
000000f0: 15e3 1c3e 6b79 5cbd 307c 2abe d210 e33d
00000100: 0d77 03be 39fd bdbd 2cb2 323d 07ff 463c
00000110: 4100 c33d 04cc c0bd ffaa 183b c540 0cbe
00000120: 0b79 3cbd 1d6f bfbd 4e92 41bb d0eb e4bd
00000130: 66b0 f53c aa5a 003d a306 09be 2400 e4bc
00000140: 804d 1ebe 700d d9bc f6ed 353e 9233 393e
00000150: 8de1 153e 09ad 603d 76a9 24bd 59e7 a0bc
00000160: 0464 9c3d 5987 bfbd 1520 8339 886d 503d
00000170: 3455 a7bc 632a 47bd 3237 20bc ddd4 76bc
00000180: a449 b6bd af05 b53d bbf9 343e a8e8 2b3e
00000190: 653d c33d 8529 4a3e f0bb fd3b 104b abbd
000001a0: 2dc7 ba3c 5571 b2bd 011c eebd 21fe 98b8
000001b0: 06d9 293d 8aa3 b13d 9981 9fbc 9ca6 8ebd
000001c0: 975c b53b aa59 f73d 7de7 7cbc e4ff 2d3e
000001d0: e01d 263d ca13 ecbc c151 113e 1cea 36b9
000001e0: 65b3 e8bd 2aac d43d 0ce2 2ebe 6afa 703d
000001f0: c3de 3c3e 3371 3f3e 2f72 593d 4120 473e
00000200: ac09 a93d 26d8 3d3e da49 033e 2278 383e
00000210: d872 33bc 57ec fd3c 4455 b13c 9621 183e
00000220: 5e96 f53d c6a0 9b3b ddac 413e ada4 b8bb
00000230: 8b7a 0e3e c354 e0bd 9a23 2cbe 3f56 213e
00000240: 9c6e bc3d d0d6 a33d b374 6cbd a627 203e
00000250: f67e 123d d8d8 e8bd 289f 0c3e 33e3 16be
00000260: 110f 193e df45 3c3e 9857 bc3d e6c2 9abd
00000270: 522e 1d3e 5ee0 1fbe aa16 cf3b f37f 033d
00000280: c927 36be 0ec1 6a3d df09 c83d bcee 5a3d
00000290: 13d6 bbbc 18c6 34be 11a0 183e c843 25be
000002a0: 2efa 203e dfd1 323e d301 25be 2de3 38be
000002b0: 446f b8bc 12dc 783d 8be0 463e baf2 3bbe
000002c0: 67e7 8ebd b7a3 9139 3f2a 0e3d febf 12be
000002d0: 637e 383e 6deb 283e 400b 24bd 63ea efbd
000002e0: 0290 373e 00a9 3e3a 5295 3a3e 6ae1 493e
000002f0: 4cdd 103e 87a1 be3d c4c9 1a3e 12be c33d
00000300: 041e 033e 231e 4b3d 1cff 123d 415b 2b3e
00000310: 4958 3dbe 8043 f23d e89d 31bb 814c 87ba
00000320: 0da8 2fba 8259 1fbe 7370 82bd 1468 b3b8
00000330: d84e 06be faee 24bb 5f92 d93d 05a3 443e
00000340: 07f3 773d 8bf3 3d3e f3e0 09be 7baf 34bc
00000350: 7c0a babd 72fb 8d3d 1ae3 9f3d 189d 0c3e
00000360: 76ba be3d c9f5 813d 2321 0dbe 45fb 293e
00000370: 3abc 45be e0f4 e03d c0d4 ad3d 5a7c 2e3e
00000380: ef95 343e 8df6 39be 85ed 573d 2f8f bf3c
00000390: c5ef d03b 88e9 183e 46e7 763d 4ac5 d03d
000003a0: 5215 aabd cd02 31bd e9ff f63d ca70 2fbd
000003b0: c78c 3b3e 6c93 083b a817 f6bd 6a76 143e
000003c0: e440 82bb 08d6 21b7 1b92 6dbd 44bf a9bd
000003d0: b897 87bd 22c0 473e 4a20 233e acf9 1e3e
000003e0: 28fa 8cb8 4fb3 31bc 622a 7e3d 1feb 37be
000003f0: 2fdc 633d a97d ca3d 6215 f0bd 7244 d738
-0.035534162 -0.15893908 -0.05959316 -0.052198015 0.029499821 -0.17143111 -0.014919728 -0.00011140138
0.18329619 0.1772916 0.02959369 0.11352686 -0.05769489 -0.03190097 -0.06361606 -0.019606682
-0.016648903 -0.002475085 -0.11536074 -0.13249424 0.17058796 -0.026077542 0.16544937 -0.09916932
0.08764429 0.146727 0.19066697 -2.799294e-05 -0.14317307 -0.10350196 -0.1862829 0.02694519
-0.08263663 -0.0715959 -0.0069630127 -0.16668338 0.11620763 0.13136643 0.017387405 0.0047936626
-0.11913924 0.13126193 -0.04390426 0.10341175 -0.07725544 -0.14567895 0.0052794595 0.12921612
-0.10127258 0.10297541 -0.08822033 0.13571921 0.004303384 -0.14295596 0.11838166 0.070378125
-0.0029285604 0.17632383 0.17107016 0.15720627 0.15321 -0.05382673 -0.16648936 0.110871926
-0.12838383 -0.09276814 0.04362695 0.012145764 0.09521533 -0.09413913 0.002329528 -0.13696583
-0.046013873 -0.09347365 -0.0029536667 -0.1117779 0.02999134 0.031336464 -0.13381438 -0.027832098
-0.15459251 -0.026495665 0.17766556 0.18086079 0.14636822 0.05485252 -0.040200673 -0.019641565
0.07636264 -0.093519874 0.0002501017 0.050885707 -0.02042637 -0.048624408 -0.009778785 -0.015065399
-0.089007646 0.08838975 0.1767339 0.1678797 0.095331945 0.19742401 0.007743351 -0.083639264
0.022800053 -0.087130226 -0.11626435 -7.29526e-05 0.041466735 0.08673771 -0.019470977 -0.06965372
0.005534719 0.12077649 -0.0154360505 0.16992146 0.040555835 -0.02881803 0.14191343 -0.00017444085
-0.11362342 0.103844 -0.17078418 0.058832563 0.18444352 0.18695526 0.05308741 0.19445898
0.08253798 0.18539485 0.12821141 0.18014577 -0.010952674 0.030996485 0.021647103 0.14856562
0.11991571 0.0047493903 0.18913598 -0.0056348653 0.13913934 -0.10953667 -0.16810456 0.15755557
0.092007846 0.079999566 -0.05772848 0.15640125 0.03576561 -0.11369485 0.13732588 -0.14735107
0.14947154 0.18386029 0.09196395 -0.07556705 0.15349701 -0.15612933 0.0063198404 0.032104444
-0.17788614 0.057313018 0.09767508 0.05345033 -0.022929227 -0.17653692 0.1490481 -0.16139138
0.15720436 0.17462872 -0.16113977 -0.1805541 -0.022513993 0.06075675 0.19421594 -0.18354312
-0.0697773 0.00027778532 0.034708258 -0.14331052 0.18016963 0.16496058 -0.04004979 -0.117146276
0.17926028 0.0007273108 0.18221024 0.19714895 0.14146918 0.09308153 0.1511603 0.095577374
0.12804419 0.049589287 0.035887823 0.1673403 -0.1849071 0.11829281 -0.0027102176 -0.0010322483
-0.0006700762 -0.15561488 -0.06369104 -8.554771e-05 -0.13116014 -0.0025166855 0.10623621 0.19202812
0.060534503 0.18549936 -0.13464718 -0.011028166 -0.09084031 0.06932725 0.07806988 0.13731802
0.09312908 0.06345708 -0.13782172 0.16599758 -0.19310084 0.10984206 0.084878445 0.17039624
0.1763532 -0.18160458 0.05271675 0.023383705 0.006376239 0.14932835 0.060279153 0.1019388
-0.08304848 -0.04321556 0.1206053 -0.042832173 0.18315421 0.0020839823 -0.12016231 0.14498296
-0.0039750207 -9.646181e-06 -0.058000665 -0.08288434 -0.06620735 0.19506887 0.15930286 0.1552493
-6.7223154e-05 -0.010845973 0.06205214 -0.17960785 0.055629905 0.09887249 -0.117228284 0.00010264748
