KGCN/kgcn_agg_weights_1_64_books_2.npy (npy, 16512 bytes, 1 tensors)

array f4 [64, 64]
0	0x3d860319	0.065435596
1	0x3d44d023	0.048050057
2	0xb9adfb7b	-0.000331845
3	0xbb4c41ce	-0.0031167152
4	0x3db8ad15	0.09017388
5	0x397f8bec	0.0002437082
6	0xbd0833a6	-0.03325238
7	0x3dbfdf6f	0.093687885
8	0xbd041701	-0.0322485
9	0x3e176a41	0.14786626
10	0xbd4311df	-0.047624465
11	0x3d8ea939	0.069658704
12	0x3c185d5f	0.009299605
13	0x3e17d873	0.14828663
14	0xbb115ebb	-0.0022181708
15	0xbe049bab	-0.12950008
16	0x3d85a990	0.06526482
17	0x3dd43be5	0.103629865
18	0x3c89b89b	0.01681166
19	0xbc026557	-0.007958732
20	0xbd71760c	-0.05895047
21	0xbdde469b	-0.10853311
22	0xbbd6deda	-0.0065573277
23	0x3cf56f91	0.029960426
24	0x3e0e90b8	0.13922393
25	0x3e1a79ae	0.1508548
26	0x3c818514	0.015810527
27	0xbc93e1c3	-0.018051988
28	0xbc9f585f	-0.019451318
29	0x3d4d5d35	0.050137717
30	0x3c34a502	0.011025669
31	0xbe1d13a7	-0.15339528
32	0x3e14bb62	0.14524606
33	0x3dde186f	0.10844504
34	0xbe10eb1f	-0.14152192
35	0x3df1965b	0.11796256
36	0x3e14de27	0.1453787
37	0xbd44a325	-0.04800715
38	0xbca9afad	-0.020713652
39	0x3c7c3c20	0.015395194
40	0x3d3d93e6	0.046283625
41	0x3ba6b6d2	0.005087712
42	0xbe0dac62	-0.1383529
43	0xbddbc2ed	-0.107305385
44	0xbdabe8f5	-0.083940424
45	0x3b1db037	0.002406133
46	0x3e1d64d6	0.15370497
47	0x3c4c3add	0.012465206
48	0x3dfa39bf	0.122180454
49	0xbbad6a42	-0.005292208
50	0xbb7a3dcd	-0.0038183809
51	0xbde6d438	-0.11270946
52	0xba574dfe	-0.0008213221
53	0x3df6488d	0.12025557
54	0xba7022a2	-0.0009160434
55	0xbd6272b2	-0.055285163
56	0xbb19566b	-0.0023397456
57	0xbe0b1910	-0.1358378
58	0x3d721d4a	0.059109963
59	0xbd9ad149	-0.07559449
60	0x3d844a90	0.06459534
61	0x3d19c22e	0.0375387
62	0x3df9b7db	0.12193271
63	0x3c6827ef	0.014169677
64	0x3c0988ce	0.008394433
65	0xbd75ff96	-0.0600582
66	0xbdc489ec	-0.09596619
67	0xbab56363	-0.0013838824
68	0xbd928804	-0.07154849
69	0x3d932d0d	0.07186327
70	0xbdd57f17	-0.10424631
71	0x3a81fec2	0.0009917843
72	0x3b47cfc4	0.0030488828
73	0xbd609054	-0.054825142
74	0xbd534f3e	-0.051589243
75	0xbd06f9da	-0.03295312
76	0xbb39302a	-0.0028257468
77	0x3e018642	0.12648872
78	0x3dc1dfce	0.094665155
79	0xbe02a0ee	-0.12756702
80	0x3ddcc21b	0.1077921
81	0xbde0a23e	-0.10968445
82	0xbda36d56	-0.079798386
83	0x3da89ee8	0.08233434
84	0x3da0fd22	0.07860781
85	0x3baf196f	0.005343608
86	0x3d2cb9a0	0.042169213
87	0x3d8692e1	0.06570984
88	0x3d7f9dc7	0.062406328
89	0x39c10fe3	0.00036823665
90	0x3da5a2a4	0.08087662
91	0xbdcd7e7e	-0.10033892
92	0x3c4c3e3d	0.012466011
93	0xbda88cba	-0.082299665
94	0xbc6e4345	-0.0145424055
95	0xbd856186	-0.06512742
96	0xbe195ee9	-0.14977612
97	0xbd9943ba	-0.07483621
98	0x3d77692f	0.060403045
99	0x3d251c3c	0.04031013
100	0xbdc0300d	-0.09384165
101	0xbd9da680	-0.07697773
102	0x3bb1f303	0.0054305806
103	0xbe1f4371	-0.1555307
104	0xbe1fa416	-0.15589938
105	0xb8c23c18	-9.261834e-05
106	0x3dbfde81	0.09368611
107	0x3e03d8cb	0.12875669
108	0xbd870633	-0.06592979
109	0x3e12d1bf	0.14337824
110	0xbe141fb2	-0.14465216
111	0xbd7baacb	-0.061442178
112	0x3d2335dc	0.039846286
113	0xbd1f763d	-0.03893112
114	0x3d39b6dd	0.045340408
115	0x3de801e5	0.11328486
116	0xbe111d92	-0.14171436
117	0x3c11934c	0.008885216
118	0xbc086967	-0.008325911
119	0x3dd8d7ef	0.10588061
120	0xbd51ea81	-0.05124903
121	0x3d62d911	0.055382792
122	0x3e13594b	0.14389531
123	0x3cc3a7cf	0.023883728
124	0x3b8e146c	0.0043359306
125	0xb993729b	-0.00028123413
126	0x3c4cfdfc	0.0125117265
127	0x3cf71eb5	0.03016601
128	0x3d76b9df	0.060235854
129	0xbccca699	-0.024981784
130	0x3dd67f05	0.10473446
131	0xbd56110f	-0.052262362
132	0x3e1e7680	0.15474892
133	0x3c2eaab6	0.010660818
134	0xbe1f2380	-0.15540886
135	0xbd68de78	-0.056852788
136	0x3d697e44	0.057005182
137	0xbddd3f8f	-0.108031385
138	0xbd8cce71	-0.06875313
139	0x3cdb95fd	0.026804918
140	0x3e096795	0.1341842
141	0x3baed396	0.0053352816
142	0xbc8fe313	-0.017564332
143	0x3d7bbb81	0.061458115
144	0x3e0e4440	0.13893223
145	0x3ba66068	0.0050774105
146	0x3d39381f	0.045219537
147	0x3dd2096e	0.10255705
148	0xbb2d0322	-0.0026399572
149	0x3d76c68d	0.060247947
150	0x3beeab9f	0.0072836424
151	0xbdb3771f	-0.08762955
152	0x3c8c74e5	0.017145583
153	0xbb4e54c9	-0.0031483641
154	0xbd93553c	-0.071939915
155	0xbe151099	-0.14557113
156	0xbd992612	-0.074779645
157	0x3d42c80a	0.047554053
158	0xbe192cbe	-0.14958474
159	0xbe07ce69	-0.13262333
160	0x3dc4c898	0.09608573
161	0x394aef3a	0.0001935334
162	0xbd273d92	-0.040830202
163	0xbd3109b1	-0.043222133
164	0xbd16637f	-0.03671598
165	0x3c2b3dfe	0.010451792
166	0xbe0843f0	-0.13307166
167	0xbdf0b4b4	-0.117532164
168	0xbda97692	-0.082745686
169	0x3cde36c5	0.027125726
170	0x39228c09	0.00015501691
171	0x3d1fbabc	0.038996443
172	0xbdac61b4	-0.08417073
173	0xbba4d3ec	-0.005030146
174	0xbd0c3b0c	-0.034236
175	0xbd1ca827	-0.0382463
176	0xbe0c6ece	-0.13714144
177	0xbdd791e0	-0.1052587
178	0x3b5a74de	0.0033333818
179	0xbdd3cb33	-0.103414916
180	0xbe021874	-0.1270464
181	0x3dd53f5b	0.10412475
182	0x3e1a6fdd	0.15081735
183	0x3dee51ad	0.11636672
184	0xbd16f6dc	-0.036856517
185	0x3e1abcd1	0.1511109
186	0x3ccd8a58	0.025090382
187	0xb9f76d24	-0.00047192827
188	0xbca29209	-0.019845026
189	0x3a506562	0.00079496775
190	0xbb7c7f50	-0.0038528033
191	0xbc8d908a	-0.017280836
192	0xbcb40365	-0.021974275
193	0xbccf292d	-0.025288189
194	0xbba4ab33	-0.0050252913
195	0xbbd04e5d	-0.006356998
196	0x3a08a8dd	0.0005213151
197	0xbcef92eb	-0.02924486
198	0xbe15df5a	-0.14635983
199	0xba74c706	-0.0009337518
200	0x3cdde97c	0.027088873
201	0xbca4f5c2	-0.020136718
202	0x3cdecf5f	0.027198492
203	0x3dd172ad	0.10226951
204	0x3de63c85	0.11242012
205	0xbd7b5ec9	-0.06136969
206	0x3e144290	0.14478517
207	0x3dd2d972	0.10295381
208	0x3ddb9118	0.10721034
209	0x3e1692fb	0.14704506
210	0xbe1a7213	-0.15082578
211	0xbb53e1c2	-0.0032330607
212	0x3a5a4d7d	0.00083275867
213	0xbd3b72a6	-0.045763634
214	0xbd90830c	-0.07056245
215	0x3af87836	0.0018956724
216	0xbde6a4c9	-0.11261899
217	0xbdd8f04f	-0.1059271
218	0xbd29adc8	-0.041425496
219	0xbe199fdf	-0.15002392
220	0x3d1affb1	0.037841503
221	0xbb41c2e2	-0.0029565622
222	0xbd74a2f1	-0.059725706
223	0x3c335aa5	0.010946904
224	0xbbc5a3b2	-0.006031477
225	0x3cd73951	0.026272448
226	0xbd61b921	-0.055108193
227	0x3e0403cd	0.12892075
228	0x3e130b68	0.1435982
229	0x3b5bdbff	0.0033547876
230	0xbe1906f8	-0.14944065
231	0xbd40edaf	-0.047101673
232	0x3da431fe	0.08017348
233	0xb9154372	-0.00014234873
234	0xbc3f2d21	-0.011668474
235	0xbd7b8745	-0.0614083
236	0xbd4715dd	-0.048604835
237	0x3d66669a	0.056250192
238	0xbe168e5e	-0.14702746
239	0x3e06f3a4	0.13178879
240	0xbdecb3e3	-0.11557748
241	0x3dbb923f	0.091587536
242	0x3d9deb20	0.07710862
243	0xbd4be509	-0.04977897
244	0x3b8b608b	0.004253452
245	0xbc0bf2fa	-0.008541817
246	0xbd9d1f46	-0.076719806
247	0x3d9bec41	0.07613421
248	0x3d31df30	0.04342574
249	0x3b2050bb	0.0024462182
250	0xbd44defa	-0.04806421
251	0xbd9564db	-0.07294627
252	0xbd13a2ec	-0.036044046
253	0xbddae113	-0.10687461
254	0xb99ca366	-0.0002987638
255	0xbd6d0d1f	-0.05787384
