KGCN/kgcn_agg_weights_0_64_news_2.npy (npy, 16512 bytes, 1 tensors)

array f4 [64, 64]
00000000: bc4f ff3c a396 273e e5a2 cfbc 6766 9cbd
00000010: 9037 3cbd 4f63 153d 7226 55bd 02c3 f0bd
00000020: e13c 94bd f905 233d 4c90 bb3d 4af7 143e
00000030: a322 4f3d 01ce 1d38 906c 07be 0b9e 483e
00000040: 1460 163d 31c0 81bd 04a5 df3d b94c e23d
00000050: 990b 95bd 31ed 0ebe 0cbc 19be e4b1 bf3d
00000060: 76c2 413d cbf8 493e 72c6 2fbb 96b4 c53d
00000070: 79d8 b5bd f549 343d 1f82 b03d d133 993c
00000080: 5a48 a73d 5f8e e2bd 4b38 eabd 3f38 03be
00000090: 6581 f4bd 629a 6fbd 10bb 7dbb cca2 273d
000000a0: e8f3 d5b7 00d8 17bd fa49 2dbd d510 fe3b
000000b0: ce5b 0cbc f9dc cfbd e5aa aebd c91a e53d
000000c0: 189a e4bd 708f 043e 5cb9 153e 5a28 453e
000000d0: 745f 69bd a3bb ab3c d226 813c a7a7 273e
000000e0: 255a 2bbe d2a3 183e 38df d4bb bb8a d43b
000000f0: 2882 623d 0fbf f0bd 31db 243e 9cff 0c38
00000100: d323 35bc c05f acbc aae6 3ebe 37b9 5bbd
00000110: bb89 843d a756 cbbd 56ba 5ebd 1cf4 0bbe
00000120: eba1 a13d e5cf da3d dbbb 413e 0627 cc3c
00000130: e3aa c439 6f63 853d 5f01 b5bd 0a1c 9ebb
00000140: ae23 363d 7da9 16bd 038e 903d f295 a13c
00000150: bfe4 033d 4db0 11be 9aac 0738 55ed 09be
00000160: 7a0d 09be db8e e73d 97f8 0fbe 1d96 24be
00000170: 5bca debd e2cf 2d3e 8340 17be feef f53c
00000180: 4b0a 2dbd 375c 2a3e 1330 06be 6a93 3cbe
00000190: ac57 cf3b f31f 25be 7456 bdbd 2b23 0b3c
000001a0: c776 55bd df72 52bd 4bda d4bd 0ceb 063c
000001b0: 60a9 163e 5117 0d3e f16e ebbd 2028 b8bd
000001c0: b23c 0ebe b7ae be3c d21c d0bc 918a 84bd
000001d0: fc12 54bd 53c8 1a38 32f9 9f3d ae50 2ebd
000001e0: 12a4 19bc dcb9 d5bd 71fb c63c 1b0f 133e
000001f0: 8698 d4bc e26d 65bd 19c8 abbd 4937 42be
00000200: b5f1 9f3d d7fd c0bd bee1 c83d baec 86bd
00000210: 10b2 8d3d d674 9e36 d715 2c3d 98c5 e337
00000220: 58be 363d cf1a 00bd 0762 2e3e d084 a8bd
00000230: 130f b7bd 417b 183d 2dab 0e3c e424 f1ba
00000240: 046d e9bd b012 3ebe 3946 6c3b 75d1 433e
00000250: f370 d63d 026c c1bd e40e 413d 3414 1d3e
00000260: 7c1b 97bd 0d42 0cb9 bcd6 393e 248d 1d3e
00000270: 3065 a03c d786 0ebe 6654 2d3e 3f32 263a
00000280: 5a21 35bc d43a 043e 3963 12be c66b c53c
00000290: 2dc3 293c 8b2e 32be c6f5 963a 6b7e f7bd
000002a0: f633 f73d 885d 273e 5d10 e03b 041e b4bd
000002b0: 1b9b 3f3e 8dfe 7ebd 1656 203e 1f06 11be
000002c0: 0bd1 8e3d 9f5c febb e183 373e 5cbf f4bc
000002d0: 41c2 22be 3f4b b43d a6d8 be3c 6003 6a3d
000002e0: 3928 c63b ac8f 383e 2f95 abbd 4cdb 993c
000002f0: 2bcc d03d e8ac b13d bb9d 75bd a748 123e
00000300: 2764 b3bd 8f73 0cbd 0137 d9b9 d3bf 0e3e
00000310: e311 3a3e f880 863d aaba a5bb aef7 93bd
00000320: 8d56 49bc 478f 023e 0efe 133e 8854 423e
00000330: 740c 24be d444 d13d 7369 483e 03e0 1f39
00000340: 7ec2 bc3d 30cd 81bd 127a c7bd 7b4a 3bbe
00000350: 23ee 033e f0d3 0b3e 2bea a7bd 5fc7 8037
00000360: d31c 8fba bb09 16be 6d2e d4bb c3da d8bd
00000370: 0166 5b3d 02de 4cbd fb78 34be e141 853d
00000380: c46c f33d f41e ca3d e292 46be d7aa 01be
00000390: b063 08bd 8aef e6bc d4c7 bfbd 11e4 f73d
000003a0: eec6 2bbd 3077 d43d afb0 b93d 201b 0cbe
000003b0: d194 29be 3a60 75bd 9849 153e 564c f0bd
000003c0: 31cc a4bd 13f4 05be 0c05 a63a 8667 593d
000003d0: 8a21 04be 2383 803d 5405 a43d 72e5 9a38
000003e0: 6d71 553d 690a d7bd fc43 62bc 9176 f73c
000003f0: 16c8 a43d 006b 20bd 9c67 433d f846 01be
0.03116595 0.16366057 -0.025346229 -0.07636719 -0.045951426 0.03647166 -0.052038617 -0.11755945
-0.07238174 0.039800618 0.09158382 0.14547458 0.05057014 3.7623573e-05 -0.13225007 0.19591539
0.03671272 -0.06335486 0.10920146 0.1104979 -0.07277603 -0.13957669 -0.1501314 0.09360102
0.047304593 0.19723813 -0.0026821163 0.09653585 -0.088791795 0.044015843 0.08618569 0.018701466
0.08168097 -0.110623114 -0.11436518 -0.12814425 -0.119387425 -0.05849684 -0.0038716234 0.04092674
-2.5505156e-05 -0.037071228 -0.042306878 0.0077534714 -0.00856681 -0.10149569 -0.08528689 0.111867495
-0.111622036 0.12945342 0.1462149 0.19253674 -0.056975797 0.020963496 0.015765581 0.16372548
-0.16733606 0.14906242 -0.0064963363 0.0064862645 0.055299908 -0.117551915 0.1609924 3.3616656e-05
-0.011055904 -0.02104175 -0.18642679 -0.05364343 0.064715825 -0.09928637 -0.054376923 -0.13667339
0.078922115 0.10684184 0.18919317 0.024920952 0.00037511354 0.06513106 -0.08838152 -0.00482512
0.04446762 -0.03678273 0.070583366 0.01972482 0.03220057 -0.1422741 3.2347256e-05 -0.13469441
-0.13384047 0.113065444 -0.14059673 -0.16072889 -0.1087844 0.16973832 -0.14770703 0.030021664
-0.042246144 0.1663674 -0.13104276 -0.18415609 0.00632759 -0.16125469 -0.09245005 0.008492271
-0.052115228 -0.05137908 -0.103931986 0.0082347505 0.14713049 0.13778426 -0.1149577 -0.08992028
-0.13890341 0.02327667 -0.025404368 -0.06471742 -0.051775917 3.6903028e-05 0.07811202 -0.04255741
-0.009377496 -0.104358405 0.024289818 0.14361231 -0.025951635 -0.056012996 -0.08387775 -0.18966402
0.07809774 -0.09423416 0.09808682 -0.06588121 0.06918728 4.7223684e-06 0.042013016 2.715252e-05
0.04461512 -0.031275567 0.17029582 -0.08228457 -0.08938422 0.03722692 0.008707804 -0.0018397835
-0.11397746 -0.18561816 0.0036052598 0.1912287 0.10470762 -0.09444429 0.04713334 0.15339738
-0.07378289 -0.00013376046 0.18148321 0.15385872 0.0195795 -0.13918625 0.16926727 0.0006339885
-0.011055315 0.12913066 -0.14295663 0.024099242 0.010361475 -0.17400567 0.0011517338 -0.12084659
0.12070458 0.16344273 0.006837888 -0.087947875 0.18711512 -0.062254477 0.15657839 -0.14162491
0.069734655 -0.007762506 0.17921402 -0.029876404 -0.15894414 0.088034146 0.023296665 0.057132125
0.0060472754 0.18023556 -0.08378064 0.018781327 0.10195192 0.086755574 -0.059964877 0.14285527
-0.08759337 -0.034289893 -0.00041430446 0.13940363 0.18170886 0.065675676 -0.0050576525 -0.072249755
-0.012288702 0.12749968 0.14452383 0.18977559 -0.16020375 0.10218206 0.19571476 0.00015246872
0.09216784 -0.063379645 -0.0974008 -0.18290131 0.1288381 0.13655066 -0.08198961 1.5351628e-05
-0.0010918624 -0.1465215 -0.006475261 -0.105886005 0.053564075 -0.05001641 -0.17624275 0.06506706
0.1188598 0.09869185 -0.19391969 -0.12662826 -0.033298194 -0.028190393 -0.09364286 0.12104047
-0.04193776 0.10374296 0.09066903 -0.13682222 -0.16560675 -0.059906222 0.14578855 -0.1173331
-0.08046759 -0.13081388 0.0012666299 0.053077243 -0.12903419 0.06275012 0.08008829 7.38603e-05
0.052110124 -0.105000325 -0.013810154 0.030207904 0.08045976 -0.039164543 0.04770623 -0.12624729
