KGCN/kgcn_agg_weights_2_64_books_2.npy (npy, 16512 bytes, 1 tensors)

array f4 [64, 64]
0.06022412 0.000973018 -0.013922431 0.1461792 0.016464468 0.009257233 0.07514804 0.02369593
0.027093014 0.102010794 -0.08531502 -0.012338106 0.010780186 0.017460989 0.10952233 -0.087188296
-0.002925852 0.14370973 0.10532295 -0.02283631 0.0101105515 -0.011153167 0.02025857 -0.032831296
-0.14295918 0.00057177397 -0.0031540063 0.040519744 -0.0513858 -0.015260779 -0.08880089 -0.011315027
0.016163688 -0.015335999 0.0052600373 0.0049627475 0.08990604 -0.0116754975 0.04868556 -0.031426817
-0.040147815 -0.035240956 -0.10938077 -0.12980883 -0.123793244 0.06049176 -0.002963176 -0.04689996
0.01606172 -0.10740798 -0.01125929 0.003986071 0.035502803 -0.11287093 -0.0005296813 0.07565054
0.028378062 0.12016509 -0.00089666026 0.009888036 -0.14215033 -0.0045497287 -0.1267255 0.05218595
-0.0053086877 0.02438119 0.0015802375 -0.060377453 0.06269559 0.07700337 -0.12715238 -0.00080675894
0.008145576 -0.14549571 -0.026769863 0.09741462 0.14398174 -0.0021845237 -0.0035505139 0.0401445
-0.14329135 0.0057725315 -0.10088258 0.13544558 0.13370372 0.019014549 -0.0030356827 -0.0023749468
-0.07934443 -0.05651576 -0.043840375 -0.00040820584 -0.09674356 -0.0020241558 -0.030853814 -0.008692652
-0.01158318 0.10794551 -0.017770864 -0.11960518 0.0010124844 0.009361353 -0.101738594 0.043739513
0.03509525 0.009930491 0.08879273 -0.02429082 -0.0025067504 0.0122051 -0.021922799 -0.024943642
0.06779983 -0.022937756 0.0033568044 0.0007142919 -0.08294872 -0.00069649843 -0.04190057 0.10794154
0.0386834 0.14115527 0.1443722 -0.032155402 0.0007711368 0.00031858945 -0.001523091 -0.11186151
0.09669355 -0.14092036 -0.052324887 0.076097265 -0.034346163 -0.03086274 -0.03190477 0.11431048
0.094987735 -0.0036163821 0.0006047508 -0.045389544 -0.14940707 0.019509183 0.1399956 -0.051526226
-0.0065372987 -0.021026399 -0.001957263 0.07921791 0.14668252 -0.059059963 -0.0024034902 -0.002339842
0.034930762 0.1190479 -0.074571185 -0.12748633 0.031031903 0.07223488 -0.015688183 0.12451985
-0.08124423 0.13076001 0.010945326 0.04601315 -0.12546141 0.14468995 -0.07487502 0.0044816514
0.007893091 0.1015557 -0.09038899 0.026029969 0.005462465 0.08580056 -0.00019523178 0.019874796
-0.021609707 -0.12407623 0.0032025399 -0.115008235 0.101177774 -0.0069943406 -0.1340959 -0.08801114
-0.027324382 0.009358177 0.10441082 -0.037188526 0.0009895978 0.084414236 0.030907933 -0.10506476
1.0335892e-05 0.12608 -0.111431375 -0.14661574 0.0593081 0.05246099 1.264773e-06 0.023575913
0.047965292 -0.00029170697 -0.06211341 0.10830582 -0.01065281 -0.10655281 -1.9425869e-07 0.14203139
0.0020059424 -0.12733972 0.013349455 -0.083093025 -9.028756e-05 -0.03515187 0.031220455 0.011067221
0.08185154 0.0008531138 -0.09359884 0.12354285 -0.13672778 0.0042349915 0.03690403 -0.08864527
-0.054280907 -0.00013425521 0.1112194 0.11382333 0.0827552 -0.11150916 -0.05213896 0.016229663
-0.09543981 -0.006531184 0.110934116 0.0041409717 4.377369e-06 0.1304677 0.14754844 -0.0658225
-0.08547239 -0.12435961 -0.032120552 -0.010806365 -0.07262034 -1.9128194e-07 0.04046391 0.036782715
-0.018905697 -4.428265e-05 0.054748237 -0.027686883 -0.013337869 -0.08069571 3.935629e-06 0.056116752
00000000: 91ad 763d 2212 7f3a e81a 64bc 00b0 153e
00000010: 7ee0 863c a6ab 173c 37e7 993d f81d c23c
00000020: 2bf2 dd3c 09eb d03d a4b9 aebd c425 4abc
00000030: 619f 303c 590a 8f3c 3e4d e03d c78f b2bd
00000040: a7bf 3fbb a528 133e 8fb3 d73d 3713 bbbc
00000050: baa6 253c c6bb 36bc 4df5 a53c 1c7a 06bd
00000060: e463 12be 1ae3 153a 72b3 4ebb 08f8 253d
00000070: eb79 52bd 5908 7abc 3edd b5bd aa62 39bc
00000080: b669 843c d843 7bbc 645c ac3b 8b9e a23b
00000090: a820 b83d 964a 3fbc 826a 473d 68b9 00bd
000000a0: 0972 24bd d258 10bd 0603 e0bd 9bec 04be
000000b0: 5087 fdbd 35c6 773d d831 42bb 2c1a 40bd
000000c0: de93 833c b7f8 dbbd e378 38bc 969d 823b
000000d0: 636b 113d e028 e7bd 4fda 0aba acee 9a3d
000000e0: 1c79 e83c 1d19 f63d da0d 6bba 6e01 223c
000000f0: db8f 11be e415 95bb 54c4 01be efc0 553d
00000100: 80f4 adbb 10bb c73c f91f cf3a 594e 77bd
00000110: 8c66 803d f1b3 9d3d 3c34 02be ad7c 53ba
00000120: 0675 053c d4fc 14be 794c dbbc 5181 c73d
00000130: f36f 133e 3a2a 0fbb bdaf 68bb 8f6e 243d
00000140: f8ba 12be 8127 bd3b 879b cebd 3fb2 0a3e
00000150: a1e9 083e 66c4 9b3c 4ef2 46bb ffa4 1bbb
00000160: 557f a2bd 127d 67bd f791 33bd 7604 d6b9
00000170: 7d21 c6bd b3a7 04bb 23c1 fcbc a06b 0ebc
00000180: 61c7 3dbc 8912 dd3d 3494 91bc 90f3 f4bd
00000190: 57b5 843a 5c60 193c 535c d0bd 3428 333d
000001a0: 09c0 0f3d 80b3 223c f6d8 b53d 8bfd c6bc
000001b0: 4b48 24bb e6f7 473c 7197 b3bc 9c56 ccbc
000001c0: a3da 8a3d f6e7 bbbc d5fd 5b3b 513f 3b3a
000001d0: 05e1 a9bd 3895 36ba ef9f 2bbd 7410 dd3d
000001e0: 7c72 1e3d 028b 103e 4ed6 133e 62b5 03bd
000001f0: 1d26 4a3a 5a08 a739 74a2 c7ba a617 e5bd
00000200: 4507 c63d 6d4d 10be 9f52 56bd e2d8 9b3d
00000210: 90ae 0cbd dbd3 fcbc 93ae 02bd 9d1b ea3d
00000220: ee88 c23d d300 6dbb 2488 1e3a 63ea 39bd
00000230: 2bfe 18be b9d1 9f3c 025b 0f3e 2a0d 53bd
00000240: d636 d6bb 8e3f acbc 6d45 00bb 003d a23d
00000250: f133 163e dce8 71bd e083 1dbb 0958 19bb
00000260: 8f13 0f3d 63cf f33d c7b8 98bd c78b 02be
00000270: 9e36 fe3c e1ef 933d 8184 80bc 4304 ff3d
00000280: 6063 a6bd f4e5 053e 0654 333c 4978 3c3d
00000290: f578 00be 9a29 143e 1358 99bd d1da 923b
000002a0: 0652 013c 6ffc cf3d dd1d b9bd cd3c d53c
000002b0: 7afe b23b 34b8 af3d 22b7 4cb9 78d0 a23c
000002c0: d706 b1bc ae1b febd b4e1 513b 7089 ebbd
000002d0: 4b36 cf3d c830 e5bb 7050 09be 2f3f b4bd
000002e0: 62d7 dfbc 0a53 193c 57d5 d53d ff52 18bd
000002f0: 64b5 813a 5fe1 ac3d a232 fd3c 312c d7bd
00000300: 5168 2d37 1e1b 013e 2236 e4bd 7022 16be
00000310: 0ded 723d 56e1 563d 45c1 a935 4622 c13c
00000320: 4177 443d 3ff0 98b9 a26a 7ebd 71cf dd3d
00000330: 2089 2ebc 5c38 dabd 6c95 50b4 ad70 113e
00000340: 2176 033b 5865 02be acb7 5a3c ad2c aabd
00000350: c458 bdb8 68fb 0fbd 0ac2 ff3c 4a53 353c
00000360: c8a1 a73d 7fa3 5f3a c0b0 bfbd 0904 fd3d
00000370: 5e02 0cbe afc5 8a3b ae28 173d a78b b5bd
00000380: a855 5ebd dcc6 0cb9 ffc6 e33d 351c e93d
00000390: 8f7b a93d ea5e e4bd aa8f 55bd 12f4 843c
000003a0: f275 c3bd 8b03 d6bb 6d31 e33d fdb0 873b
000003b0: 50e1 9236 5399 053e f016 173e f2cd 86bd
000003c0: 260c afbd 40b0 febd d790 03bd 2e0d 31bc
000003d0: f9b9 94bd 2e63 4db4 7cbd 253d 79a9 163d
000003e0: 1fe0 9abc 22bc 39b8 b03f 603d 9acf e2bc
000003f0: 1487 5abc cb43 a5bd cc0e 8436 aeda 653d
