KGCN/kgcn_agg_weights_2_64_books_2.npy (npy, 16512 bytes, 1 tensors)

array f4 [64, 64]
-1.094409e-30 1.9032589e-30 -2.4702814e-30 -2.8463992e-30 -1.4821941e-30 1.964214e-24 -1.2373161e-30 3.36992e-31
-1.923931e-30 5.119954e-16 4.403816e-18 2.6091556e-22 1.0817119e-08 -1.6836961e-30 1.2629172e-30 -5.9544624e-07
-5.7187457e-14 -9.813996e-31 -3.401884e-11 2.1559146e-07 -2.6783336e-30 -4.04715e-31 -4.576255e-23 2.5541362e-11
1.1899027e-08 -9.234681e-22 1.3285795e-30 1.1413474e-08 2.9536785e-12 -2.7983412e-30 -1.3703035e-30 6.5779827e-16
-1.4444431e-30 6.094151e-14 -4.0646197e-13 2.9158448e-30 2.7538586e-30 7.5421627e-31 -1.6661068e-30 1.27890294e-14
-2.5851295e-30 -1.9899234e-31 -7.195985e-31 -2.1282558e-07 1.2896799e-08 1.0721258e-06 1.0680206e-08 9.499173e-21
-2.7468127e-25 -1.9855262e-30 2.4982225e-30 -7.240589e-08 -5.4466e-18 1.6153331e-30 2.2916291e-08 2.1302356e-10
-1.35091325e-20 -2.2128598e-30 -1.1383682e-30 1.2116531e-31 2.6159954e-14 -2.562539e-10 1.0085102e-12 -3.1352934e-19
0.3020178 0.046409473 -0.31612244 -0.010913703 -0.062495664 -0.012633833 0.03551781 0.0077645644
0.013073169 0.2914504 -0.34801674 -0.1336901 -0.00019863059 0.24273571 0.28557137 0.0017487837
0.022956597 0.22164606 -0.0056915446 -0.23274808 -0.004937315 0.18450113 0.20306899 0.023903264
-0.10851191 0.28907377 -0.15801671 0.15834665 0.0872465 -0.04011826 -0.2786928 0.0074988627
-0.06992678 -0.30806404 -0.27562404 0.042241115 -5.311888e-05 -0.004281727 -0.21235895 -0.330276
0.19434822 -0.013636042 -0.0035043173 -0.18747017 0.28574467 0.19899279 -0.3147378 -0.0065355343
0.19402452 0.21870475 -0.21656907 -0.15313631 0.20947643 0.24217477 -0.0073823114 0.29425263
-0.07669715 0.0066161803 0.16805857 0.28036943 -0.16008516 -0.2680377 -0.055378407 -0.19951218
-0.25749338 -0.1777751 0.31759608 0.140643 0.1784896 0.14179718 -0.16585933 0.18359502
-0.1446007 -0.2854169 0.28028774 0.20732918 -0.14497885 -0.28697413 -0.32926536 -0.13305256
-0.13727221 -0.24240147 0.0922939 0.24034175 -0.09864574 -0.2242624 -0.232032 -0.17707822
0.1858592 -0.31664208 0.16601665 -0.2178398 -0.1887788 0.1823082 0.30850682 -0.11101184
0.14819321 0.29908487 0.28375858 -0.08516731 0.08276887 0.16263272 0.23908553 0.33502877
-0.22259551 0.14481819 -0.14479524 0.2148066 -0.23670012 -0.21027218 0.32570785 0.13284932
-0.24919097 -0.24218825 0.24238108 0.20519055 -0.2560868 -0.26894784 0.13201065 -0.30940324
0.18399523 0.14905912 -0.17478459 -0.28804275 0.15038528 0.26789784 0.18297134 0.23663822
0.058733728 0.12322488 0.0045788474 -0.18093555 -0.11554242 -0.15629894 0.14975272 -0.26543358
0.17180708 0.041791737 -0.049768943 -0.07722253 0.20101352 0.06904335 0.05430129 0.17595859
0.15064494 0.04310215 -0.17281324 -0.08557559 0.24287704 0.057437304 0.08206938 0.15836275
-0.10592431 0.038464095 -0.041144926 0.105411686 0.029113771 -0.13666663 -0.020962521 0.17499165
-0.14564776 -0.050612416 -0.012994366 0.06571479 -0.20245495 -0.20209318 -0.0529308 -0.045030702
0.10470476 -0.1283545 0.22956914 -0.0464039 0.028300323 0.07609439 -0.05648885 -0.21206635
0.054984324 0.053713165 -0.05781086 -0.039026618 0.06443556 0.07107818 -0.17354272 0.055319723
-0.09247073 -0.28170487 0.08110319 0.041138217 -0.03319167 -0.072586685 -0.06305254 -0.07251793
00000000: f993 b18d 2469 1a0e bd69 488e 66ed 668e
00000010: ef7f f08d 44f9 1718 1ac4 c88d 66b8 da0c
00000020: 7c16 1c8e 9892 1326 de78 a222 bab6 9d1b
00000030: 31d6 3932 0099 088e 87eb cc0d c1d6 1fb5
00000040: 53c6 80a9 bf3d 9f8d cf9d 15ae 547d 6734
00000050: d04a 598e 6856 038d 4b4b 5d9a 09aa e02d
00000060: 796c 4c32 f18c 8b9c 0993 d70d fd14 4432
00000070: bed8 4f2c 4607 638e 2e58 de8d f298 3d26
00000080: d25f ea8d 643a 8929 58d1 e4aa ba8f 6c0e
00000090: 686b 5f0e d6c1 740d af2b 078e fd62 6628
000000a0: 0abb 518e 4627 818c e885 698d 0d85 64b4
000000b0: b990 5d32 f6e5 8f35 0b7c 3732 2f6f 331e
000000c0: fc04 aa96 c415 218e 0dae 4a0e 8f7d 9bb3
000000d0: aff1 c8a2 280d 030e 75d9 c432 cd38 6a2f
000000e0: 282e 7f9e 4d87 338e f7b5 b88d 1548 1d0c
000000f0: bfa0 eb28 88e0 8caf 69ef 8d2b 3713 b9a0
00000100: 14a2 9a3e dc17 3e3d cdda a1be 63cf 32bc
00000110: 74fb 7fbd 23fe 4ebc 207b 113d e36d fe3b
00000120: d830 563c fd38 953e 402f b2be 0fe6 08be
00000130: 7e47 50b9 b68f 783e 6936 923e 7237 e53a
00000140: 790f bc3c 2ff7 623e 2380 babb 8355 6ebe
00000150: 33c9 a1bb dded 3c3e 51f1 4f3e c7d0 c33c
00000160: 7e3b debd 7a01 943e 22cf 21be a025 223e
00000170: 4bae b23d 0b53 24bd d3b0 8ebe 05b9 f53b
00000180: c635 8fbd 92ba 9dbe 981e 8dbe 0505 2d3d
00000190: f7cb 5eb8 bb4d 8cbb a074 59be f019 a9be
000001a0: 3803 473e b569 5fbc b0a8 65bb 2ef8 3fbe
000001b0: 204d 923e c4c4 4b3e 5025 a1be 0928 d6bb
000001c0: 5dae 463e 23f4 5f3e 48c4 5dbe c4cf 1cbe
000001d0: fd80 563e aafc 773e 51e7 f1bb 48a8 963e
000001e0: 6513 9dbd 8bcc d83b 8c17 2c3e 958c 8f3e
000001f0: 5ded 23be 3d3c 89be 78d4 62bd ec4c 4cbe
00000200: 2cd6 83be ad0a 36be f49b a23e b804 103e
00000210: fac5 363e 4833 113e 07d7 29be 5500 3c3e
00000220: 3512 14be 2a22 92be e081 8f3e 1a4e 543e
00000230: 5675 14be 46ee 92be 7895 a8be ee3e 08be
00000240: 1691 0cbe 1738 78be 9604 bd3d 261c 763e
00000250: c706 cabd 0ba5 65be cc99 6dbe fe53 35be
00000260: e051 3e3e e91e a2be 4500 2a3e 6611 5fbe
00000270: 3b4f 41be 00af 3a3e 9bf4 9d3e 2d5a e3bd
00000280: f6bf 173e a721 993e ce48 913e 336c aebd
00000290: ba82 a93d 3189 263e d6d2 743e e488 ab3e
000002a0: 14f0 63be 384b 143e 3445 14be 43f6 5b3e
000002b0: 8461 72be 9751 57be 2ec3 a63e a709 083e
000002c0: eb2b 7fbe 3200 78be bf32 783e 791d 523e
000002d0: cf1d 83be 88b3 89be cd2d 073e 1a6a 9ebe
000002e0: 3f69 3c3e f4a2 183e bbfa 32be 577a 93be
000002f0: 99fe 193e e829 893e d75c 3b3e 4a51 723e
00000300: c792 703d 535d fc3d 280a 963b 2b47 39be
00000310: 81a1 ecbd d40c 20be c758 193e e9e6 87be
00000320: 32ee 2f3e d02d 2b3d 85da 4bbd d926 9ebd
00000330: 7dd6 4d3e 9a66 8d3d 086b 5e3d 7d2e 343e
00000340: ab42 1a3e e18b 303d f4f5 30be 4142 afbd
00000350: c2b4 783e 6143 6b3d fe13 a83d d829 223e
00000360: d8ee d8bd 878c 1d3d 9587 28bd 15e2 d73d
00000370: 0180 ee3c 56f2 0bbe 98b9 abbc 0331 333e
00000380: b024 15be f74e 4fbd 52e6 54bc 7a95 863d
00000390: 5a50 4fbe 84f1 4ebe f7cd 58bd 1d72 38bd
000003a0: 736f d63d 5d6f 03be 2c14 6b3e 0412 3ebd
000003b0: 14d6 e73c 60d7 9b3d da60 67bd ec27 59be
000003c0: 3e37 613d 5602 5c3d 15cb 6cbd 60da 1fbd
000003d0: caf6 833d 7091 913d 2fb5 31be ef96 623d
000003e0: 4b61 bdbd 9f3b 90be 6e19 a63d 8c80 283d
000003f0: fdf3 07bd 54a8 94bd b121 81bd 4884 94bd
