KGCN/New folder/kgcn_agg_weights_0_64_news_2.npy (npy, 16512 bytes, 1 tensors)

array f4 [64, 64]
0.09036247 -0.019197948 -0.12513113 -0.110397704 0.18595508 0.1861594 0.011740854 -0.11278469
-0.027308108 0.026967002 0.079664536 0.20561044 0.049520466 -0.09409334 -0.15199554 0.20867872
0.022045523 -0.20351349 0.00033962683 0.16701354 0.023629295 0.06731919 0.004551492 0.16903365
-0.17222427 -0.115679435 -0.08899267 0.089477554 0.07605391 -0.1336908 0.110412665 -0.15914129
-0.17817973 0.052862573 0.20807004 0.18013063 -0.12838921 -0.052900538 -0.006434735 0.11138531
-0.08021614 0.10490725 0.10562824 -0.09692816 -0.07374081 0.09893461 -0.086197026 0.019867979
0.06961332 -0.11747926 -0.19808835 0.038922783 -0.033027355 -0.17241104 0.196929 -0.033146076
0.15931706 0.011612532 -0.20794365 -0.085752994 0.12000045 0.116103575 -0.13344859 0.15943468
0.08958581 0.097303264 -0.2077344 0.034676448 -0.17035435 -0.050130162 -0.10967518 0.13735448
0.12112143 0.18108913 -0.033446994 -0.0836456 0.094637014 0.15360938 0.051465284 -0.13497233
0.09859789 0.041735012 0.07566872 0.09001518 -0.110419326 0.15401664 -0.134119 -0.10234495
0.19985098 0.094723925 0.2085614 0.009584035 -0.16882475 0.058931764 -0.17009883 0.12080659
0.048821736 0.06868356 -0.0745851 0.17898491 0.047340438 -0.16545913 -0.0385617 -0.1620541
0.009327417 -0.08183369 0.14386067 -0.17044286 -0.0371242 -0.05510268 -0.1618795 0.08468526
-0.1635087 -0.20829654 -0.1515675 0.041730233 -0.06974151 0.124152005 0.1430647 -0.13397424
-0.15973802 0.14388394 -0.10750974 -0.06895788 -0.04454688 -0.18683581 -0.12908618 0.037469912
-0.09252582 0.13313574 -0.0007774302 0.11856216 -0.048183013 -0.15415537 0.02171646 -0.017327156
0.04582714 -0.096605316 -0.17080645 -0.19973746 0.19297403 0.17282939 -0.11298453 0.21122079
0.19793333 0.1248336 0.10729623 0.20025681 0.16757068 0.006678899 -0.013818489 0.1883143
0.09442923 0.03238779 0.10745494 0.093544036 -0.19725858 0.14611113 -0.011903257 0.08339956
0.08763981 -0.08554364 -0.06273043 0.1543415 0.18488568 0.20028614 -0.08000211 -0.21024841
-0.12886854 0.18547611 -0.16756706 0.07471643 -0.12969708 0.010185056 0.17431764 -0.016705072
0.10207359 0.18509428 0.19769196 0.10894298 0.024875915 0.047081053 -0.0987274 0.0964629
0.14551935 -0.12537464 0.0758059 0.022185503 -0.18427865 -0.098443255 -0.025144283 0.013037078
0.17708617 0.023424275 0.087548494 0.17010209 -0.05128353 -0.06865915 0.018091546 0.19012424
0.15625767 -0.11236276 -0.13357776 -0.07828702 0.006129744 0.060482033 -0.18892552 0.2064201
-0.030814338 -0.08705437 0.18631251 -0.00746652 -0.15954217 0.13299902 -0.030654386 -0.20729038
0.033861894 0.06459288 -0.0050462047 -0.066539705 0.1439666 0.096247114 0.17774032 0.058488704
-0.11119407 -0.1036158 0.19791742 0.013500082 0.16596581 -0.040981483 -0.13235201 -0.123182476
0.07012911 0.06299665 0.11379418 -0.14410849 -0.07166608 0.15815447 0.14946914 0.17394447
-0.069020696 -0.04157567 0.029656257 -0.033374418 -0.11005776 0.17578706 0.14373186 -0.08751183
0.066156104 -0.068646625 -0.014205187 0.084688924 -0.13541217 0.039805498 -0.06477751 -0.12903519
00000000: f50f b93d 0445 9dbc 6022 00be 3118 e2bd
00000010: 026b 3e3e 92a0 3e3e b65c 403c a9fb e6bd
00000020: 41b5 dfbc e7e9 dc3c 2927 a33d 8b8b 523e
00000030: f9d5 4a3d 02b4 c0bd b8a4 1bbe e0af 553e
00000040: d098 b43c d765 50be f10f b239 9905 2b3e
00000050: 3992 c13c a5de 893d af24 953b 2817 2d3e
00000060: 8f5b 30be 57e9 ecbd ca41 b6bd 0240 b73d
00000070: 27c2 9b3d 3ee6 08be 0920 e23d eff5 22be
00000080: bf74 36be 6d86 583d 5010 553e 2a74 383e
00000090: 7678 03be 3cae 58bd 78da d2bb fb1d e43d
000000a0: 5c48 a4bd 9dd9 d63d 9e53 d83d 4582 c6bd
000000b0: 6c05 97bd 3b9e ca3d 1188 b0bd 2cc2 a23c
000000c0: 6e91 8e3d f798 f0bd acd7 4abe 7f6d 1f3d
000000d0: b147 07bd 858c 30be c1a7 493e 2ec4 07bd
000000e0: 0324 233e 7d42 3e3c 2eef 54be 449f afbd
000000f0: ccc2 f53d b6c7 ed3d bfa6 08be d842 233e
00000100: c478 b73d ef46 c73d 54b8 54be e408 0e3d
00000110: 5f71 2ebe 4955 4dbd 619d e0bd a7a6 0c3e
00000120: 830e f83d 6e6f 393e b7ff 08bd 624e abbd
00000130: 0dd1 c13d c74b 1d3e 43cd 523d 3036 0abe
00000140: b1ed c93d 55f2 2a3d 34f8 9a3d e159 b83d
00000150: 8723 e2bd 8ab6 1d3e 7e56 09be 3b9a d1bd
00000160: bca5 4c3e 9efe c13d 1f91 553e 5b06 1d3c
00000170: 65e0 2cbe 6f62 713d 632e 2ebe 7269 f73d
00000180: 4df9 473d f7a9 8c3d 13c0 98bd d247 373e
00000190: 0ce8 413d 1e6e 29be e0f2 1dbd 83f1 25be
000001a0: 06d2 183c 6c98 a7bd 3650 133e 9388 2ebe
000001b0: 8c0f 18bd 59b3 61bd bdc3 25be 776f ad3d
000001c0: d36e 27be b04b 55be 8334 1bbe 52ed 2a3d
000001d0: a3d4 8ebd 6843 fe3d 8d7f 123e 8b30 09be
000001e0: 5d92 23be 5056 133e 112e dcbd ca39 8dbd
000001f0: ca76 36bd e351 3fbe 2b2f 04be 0d7a 193d
00000200: 2d7e bdbd bc54 083e 75cc 4bba b8d0 f23d
00000210: 8d5b 45bd e8da 1dbe b8e6 b13c aef1 8dbc
00000220: 3db5 3b3d 02d9 c5bd e3e7 2ebe fa87 4cbe
00000230: fc9a 453e 30fa 303e 6f64 e7bd 434a 583e
00000240: 09af 4a3e c2a8 ff3d 20be db3d 1f10 4d3e
00000250: a697 2b3e aada da3b f266 62bc 77d5 403e
00000260: 1d64 c13d 0fa9 043d 5611 dc3d 0494 bf3d
00000270: 27fe 49be 289e 153e e105 43bc 63cd aa3d
00000280: 807c b33d 8131 afbd d078 80bd b30b 1e3e
00000290: ac52 3d3e cf17 4d3e 25d8 a3bd 5c4b 57be
000002a0: 1df6 03be 73ed 3d3e b396 2bbe ed04 993d
000002b0: 50cf 04be 39df 263c 5380 323e 13d9 88bc
000002c0: f50b d13d 5b89 3d3e c36f 4a3e 7f1d df3d
000002d0: 93c8 cb3c 10d8 403d 9731 cabd 578e c53d
000002e0: 0603 153e 3662 00be 2040 9b3d 5fbe b53c
000002f0: 8bb3 3cbe 9e9c c9bd 62fb cdbc 7899 553c
00000300: 1456 353e 44e4 bf3c a04c b33d 3e2f 2e3e
00000310: ae0e 52bd 2b9d 8cbd b934 943c eeaf 423e
00000320: 0302 203e 721e e6bd 9cc8 08be f254 a0bd
00000330: 05dc c83b 02bc 773d b175 41be ca5f 533e
00000340: 5a6e fcbc 9049 b2bd b5c8 3e3e b6a9 f4bb
00000350: 065f 23be e530 083e e81e fbbc ee43 54be
00000360: c5b2 0a3d 4649 843d a25a a5bb f845 88bd
00000370: fb6b 133e 351d c53d 8f01 363e da91 6f3d
00000380: b7b9 e3bd 8534 d4bd ddaa 4a3e 732f 5d3c
00000390: f1f2 293e 33dc 27bd 4987 07be 1847 fcbd
000003a0: da9f 8f3d 6304 813d ec0c e93d 2d91 13be
000003b0: aac5 92bd 3ff3 213e 700e 193e 801e 323e
000003c0: b95a 8dbd 404b 2abd aef1 f23c 9db3 08bd
000003d0: f665 e1bd 8601 343e 722e 133e 6739 b3bd
000003e0: da7c 873d 9a96 8cbd dfbc 68bc 6371 ad3d
000003f0: 7da9 0abe 170b 233d 12aa 84bd cd21 04be
